program(1.0)
[buildInfo = dict<tensor<string, []>, tensor<string, []>>({{"coremlc-component-MIL", "3510.2.1"}, {"coremlc-version", "3500.32.1"}, {"coremltools-component-torch", "2.11.0"}, {"coremltools-source-dialect", "TorchScript"}, {"coremltools-version", "9.0"}})]
{
    func main<ios15>(tensor<fp32, [1, 12, 1000]> ecg_signal) {
            tensor<string, []> input_3_pad_type_0 = const()[name = tensor<string, []>("input_3_pad_type_0"), val = tensor<string, []>("custom")];
            tensor<int32, [2]> input_3_pad_0 = const()[name = tensor<string, []>("input_3_pad_0"), val = tensor<int32, [2]>([2, 2])];
            tensor<int32, [1]> input_3_strides_0 = const()[name = tensor<string, []>("input_3_strides_0"), val = tensor<int32, [1]>([2])];
            tensor<int32, [1]> input_3_dilations_0 = const()[name = tensor<string, []>("input_3_dilations_0"), val = tensor<int32, [1]>([1])];
            tensor<int32, []> input_3_groups_0 = const()[name = tensor<string, []>("input_3_groups_0"), val = tensor<int32, []>(1)];
            tensor<string, []> ecg_signal_to_fp16_dtype_0 = const()[name = tensor<string, []>("ecg_signal_to_fp16_dtype_0"), val = tensor<string, []>("fp16")];
            tensor<fp16, [32, 12, 5]> const_1_to_fp16 = const()[name = tensor<string, []>("const_1_to_fp16"), val = tensor<fp16, [32, 12, 5]>(BLOBFILE(path = tensor<string, []>("@model_path/weights/weight.bin"), offset = tensor<uint64, []>(64)))];
            tensor<fp16, [32]> const_2_to_fp16 = const()[name = tensor<string, []>("const_2_to_fp16"), val = tensor<fp16, [32]>(BLOBFILE(path = tensor<string, []>("@model_path/weights/weight.bin"), offset = tensor<uint64, []>(3968)))];
            tensor<fp16, [1, 12, 1000]> ecg_signal_to_fp16 = cast(dtype = ecg_signal_to_fp16_dtype_0, x = ecg_signal)[name = tensor<string, []>("cast_2")];
            tensor<fp16, [1, 32, 500]> input_5_cast_fp16 = conv(bias = const_2_to_fp16, dilations = input_3_dilations_0, groups = input_3_groups_0, pad = input_3_pad_0, pad_type = input_3_pad_type_0, strides = input_3_strides_0, weight = const_1_to_fp16, x = ecg_signal_to_fp16)[name = tensor<string, []>("input_5_cast_fp16")];
            tensor<fp16, [1, 32, 500]> input_7_cast_fp16 = relu(x = input_5_cast_fp16)[name = tensor<string, []>("input_7_cast_fp16")];
            tensor<string, []> input_9_pad_type_0 = const()[name = tensor<string, []>("input_9_pad_type_0"), val = tensor<string, []>("custom")];
            tensor<int32, [2]> input_9_pad_0 = const()[name = tensor<string, []>("input_9_pad_0"), val = tensor<int32, [2]>([2, 2])];
            tensor<int32, [1]> input_9_strides_0 = const()[name = tensor<string, []>("input_9_strides_0"), val = tensor<int32, [1]>([1])];
            tensor<int32, [1]> input_9_dilations_0 = const()[name = tensor<string, []>("input_9_dilations_0"), val = tensor<int32, [1]>([1])];
            tensor<int32, []> input_9_groups_0 = const()[name = tensor<string, []>("input_9_groups_0"), val = tensor<int32, []>(1)];
            tensor<fp16, [32, 32, 5]> const_3_to_fp16 = const()[name = tensor<string, []>("const_3_to_fp16"), val = tensor<fp16, [32, 32, 5]>(BLOBFILE(path = tensor<string, []>("@model_path/weights/weight.bin"), offset = tensor<uint64, []>(4096)))];
            tensor<fp16, [32]> const_4_to_fp16 = const()[name = tensor<string, []>("const_4_to_fp16"), val = tensor<fp16, [32]>(BLOBFILE(path = tensor<string, []>("@model_path/weights/weight.bin"), offset = tensor<uint64, []>(14400)))];
            tensor<fp16, [1, 32, 500]> input_11_cast_fp16 = conv(bias = const_4_to_fp16, dilations = input_9_dilations_0, groups = input_9_groups_0, pad = input_9_pad_0, pad_type = input_9_pad_type_0, strides = input_9_strides_0, weight = const_3_to_fp16, x = input_7_cast_fp16)[name = tensor<string, []>("input_11_cast_fp16")];
            tensor<fp16, [1, 32, 500]> input_13_cast_fp16 = relu(x = input_11_cast_fp16)[name = tensor<string, []>("input_13_cast_fp16")];
            tensor<string, []> input_15_pad_type_0 = const()[name = tensor<string, []>("input_15_pad_type_0"), val = tensor<string, []>("custom")];
            tensor<int32, [2]> input_15_pad_0 = const()[name = tensor<string, []>("input_15_pad_0"), val = tensor<int32, [2]>([2, 2])];
            tensor<int32, [1]> input_15_strides_0 = const()[name = tensor<string, []>("input_15_strides_0"), val = tensor<int32, [1]>([1])];
            tensor<int32, [1]> input_15_dilations_0 = const()[name = tensor<string, []>("input_15_dilations_0"), val = tensor<int32, [1]>([1])];
            tensor<int32, []> input_15_groups_0 = const()[name = tensor<string, []>("input_15_groups_0"), val = tensor<int32, []>(1)];
            tensor<fp16, [64, 32, 5]> const_5_to_fp16 = const()[name = tensor<string, []>("const_5_to_fp16"), val = tensor<fp16, [64, 32, 5]>(BLOBFILE(path = tensor<string, []>("@model_path/weights/weight.bin"), offset = tensor<uint64, []>(14528)))];
            tensor<fp16, [64]> const_6_to_fp16 = const()[name = tensor<string, []>("const_6_to_fp16"), val = tensor<fp16, [64]>(BLOBFILE(path = tensor<string, []>("@model_path/weights/weight.bin"), offset = tensor<uint64, []>(35072)))];
            tensor<fp16, [1, 64, 500]> input_17_cast_fp16 = conv(bias = const_6_to_fp16, dilations = input_15_dilations_0, groups = input_15_groups_0, pad = input_15_pad_0, pad_type = input_15_pad_type_0, strides = input_15_strides_0, weight = const_5_to_fp16, x = input_13_cast_fp16)[name = tensor<string, []>("input_17_cast_fp16")];
            tensor<fp16, [1, 64, 500]> input_19_cast_fp16 = relu(x = input_17_cast_fp16)[name = tensor<string, []>("input_19_cast_fp16")];
            tensor<int32, [1]> var_80 = const()[name = tensor<string, []>("op_80"), val = tensor<int32, [1]>([3])];
            tensor<int32, [1]> var_81 = const()[name = tensor<string, []>("op_81"), val = tensor<int32, [1]>([2])];
            tensor<string, []> input_21_pad_type_0 = const()[name = tensor<string, []>("input_21_pad_type_0"), val = tensor<string, []>("custom")];
            tensor<int32, [2]> input_21_pad_0 = const()[name = tensor<string, []>("input_21_pad_0"), val = tensor<int32, [2]>([1, 1])];
            tensor<bool, []> input_21_ceil_mode_0 = const()[name = tensor<string, []>("input_21_ceil_mode_0"), val = tensor<bool, []>(false)];
            tensor<fp16, [1, 64, 250]> input_21_cast_fp16 = max_pool(ceil_mode = input_21_ceil_mode_0, kernel_sizes = var_80, pad = input_21_pad_0, pad_type = input_21_pad_type_0, strides = var_81, x = input_19_cast_fp16)[name = tensor<string, []>("input_21_cast_fp16")];
            tensor<string, []> input_23_pad_type_0 = const()[name = tensor<string, []>("input_23_pad_type_0"), val = tensor<string, []>("valid")];
            tensor<int32, [1]> input_23_strides_0 = const()[name = tensor<string, []>("input_23_strides_0"), val = tensor<int32, [1]>([1])];
            tensor<int32, [2]> input_23_pad_0 = const()[name = tensor<string, []>("input_23_pad_0"), val = tensor<int32, [2]>([0, 0])];
            tensor<int32, [1]> input_23_dilations_0 = const()[name = tensor<string, []>("input_23_dilations_0"), val = tensor<int32, [1]>([1])];
            tensor<int32, []> input_23_groups_0 = const()[name = tensor<string, []>("input_23_groups_0"), val = tensor<int32, []>(1)];
            tensor<fp16, [64, 64, 1]> const_7_to_fp16 = const()[name = tensor<string, []>("const_7_to_fp16"), val = tensor<fp16, [64, 64, 1]>(BLOBFILE(path = tensor<string, []>("@model_path/weights/weight.bin"), offset = tensor<uint64, []>(35264)))];
            tensor<fp16, [64]> const_8_to_fp16 = const()[name = tensor<string, []>("const_8_to_fp16"), val = tensor<fp16, [64]>(BLOBFILE(path = tensor<string, []>("@model_path/weights/weight.bin"), offset = tensor<uint64, []>(43520)))];
            tensor<fp16, [1, 64, 250]> input_25_cast_fp16 = conv(bias = const_8_to_fp16, dilations = input_23_dilations_0, groups = input_23_groups_0, pad = input_23_pad_0, pad_type = input_23_pad_type_0, strides = input_23_strides_0, weight = const_7_to_fp16, x = input_21_cast_fp16)[name = tensor<string, []>("input_25_cast_fp16")];
            tensor<fp16, [1, 64, 250]> input_27_cast_fp16 = relu(x = input_25_cast_fp16)[name = tensor<string, []>("input_27_cast_fp16")];
            tensor<string, []> input_29_pad_type_0 = const()[name = tensor<string, []>("input_29_pad_type_0"), val = tensor<string, []>("custom")];
            tensor<int32, [2]> input_29_pad_0 = const()[name = tensor<string, []>("input_29_pad_0"), val = tensor<int32, [2]>([2, 2])];
            tensor<int32, [1]> input_29_strides_0 = const()[name = tensor<string, []>("input_29_strides_0"), val = tensor<int32, [1]>([1])];
            tensor<int32, [1]> input_29_dilations_0 = const()[name = tensor<string, []>("input_29_dilations_0"), val = tensor<int32, [1]>([1])];
            tensor<int32, []> input_29_groups_0 = const()[name = tensor<string, []>("input_29_groups_0"), val = tensor<int32, []>(1)];
            tensor<fp16, [64, 64, 5]> const_9_to_fp16 = const()[name = tensor<string, []>("const_9_to_fp16"), val = tensor<fp16, [64, 64, 5]>(BLOBFILE(path = tensor<string, []>("@model_path/weights/weight.bin"), offset = tensor<uint64, []>(43712)))];
            tensor<fp16, [64]> const_10_to_fp16 = const()[name = tensor<string, []>("const_10_to_fp16"), val = tensor<fp16, [64]>(BLOBFILE(path = tensor<string, []>("@model_path/weights/weight.bin"), offset = tensor<uint64, []>(84736)))];
            tensor<fp16, [1, 64, 250]> input_31_cast_fp16 = conv(bias = const_10_to_fp16, dilations = input_29_dilations_0, groups = input_29_groups_0, pad = input_29_pad_0, pad_type = input_29_pad_type_0, strides = input_29_strides_0, weight = const_9_to_fp16, x = input_27_cast_fp16)[name = tensor<string, []>("input_31_cast_fp16")];
            tensor<fp16, [1, 64, 250]> input_33_cast_fp16 = relu(x = input_31_cast_fp16)[name = tensor<string, []>("input_33_cast_fp16")];
            tensor<string, []> input_35_pad_type_0 = const()[name = tensor<string, []>("input_35_pad_type_0"), val = tensor<string, []>("valid")];
            tensor<int32, [1]> input_35_strides_0 = const()[name = tensor<string, []>("input_35_strides_0"), val = tensor<int32, [1]>([1])];
            tensor<int32, [2]> input_35_pad_0 = const()[name = tensor<string, []>("input_35_pad_0"), val = tensor<int32, [2]>([0, 0])];
            tensor<int32, [1]> input_35_dilations_0 = const()[name = tensor<string, []>("input_35_dilations_0"), val = tensor<int32, [1]>([1])];
            tensor<int32, []> input_35_groups_0 = const()[name = tensor<string, []>("input_35_groups_0"), val = tensor<int32, []>(1)];
            tensor<fp16, [256, 64, 1]> const_11_to_fp16 = const()[name = tensor<string, []>("const_11_to_fp16"), val = tensor<fp16, [256, 64, 1]>(BLOBFILE(path = tensor<string, []>("@model_path/weights/weight.bin"), offset = tensor<uint64, []>(84928)))];
            tensor<fp16, [256]> const_12_to_fp16 = const()[name = tensor<string, []>("const_12_to_fp16"), val = tensor<fp16, [256]>(BLOBFILE(path = tensor<string, []>("@model_path/weights/weight.bin"), offset = tensor<uint64, []>(117760)))];
            tensor<fp16, [1, 256, 250]> var_176_cast_fp16 = conv(bias = const_12_to_fp16, dilations = input_35_dilations_0, groups = input_35_groups_0, pad = input_35_pad_0, pad_type = input_35_pad_type_0, strides = input_35_strides_0, weight = const_11_to_fp16, x = input_33_cast_fp16)[name = tensor<string, []>("op_176_cast_fp16")];
            tensor<string, []> input_37_pad_type_0 = const()[name = tensor<string, []>("input_37_pad_type_0"), val = tensor<string, []>("valid")];
            tensor<int32, [1]> input_37_strides_0 = const()[name = tensor<string, []>("input_37_strides_0"), val = tensor<int32, [1]>([1])];
            tensor<int32, [2]> input_37_pad_0 = const()[name = tensor<string, []>("input_37_pad_0"), val = tensor<int32, [2]>([0, 0])];
            tensor<int32, [1]> input_37_dilations_0 = const()[name = tensor<string, []>("input_37_dilations_0"), val = tensor<int32, [1]>([1])];
            tensor<int32, []> input_37_groups_0 = const()[name = tensor<string, []>("input_37_groups_0"), val = tensor<int32, []>(1)];
            tensor<fp16, [256, 64, 1]> const_13_to_fp16 = const()[name = tensor<string, []>("const_13_to_fp16"), val = tensor<fp16, [256, 64, 1]>(BLOBFILE(path = tensor<string, []>("@model_path/weights/weight.bin"), offset = tensor<uint64, []>(118336)))];
            tensor<fp16, [256]> const_14_to_fp16 = const()[name = tensor<string, []>("const_14_to_fp16"), val = tensor<fp16, [256]>(BLOBFILE(path = tensor<string, []>("@model_path/weights/weight.bin"), offset = tensor<uint64, []>(151168)))];
            tensor<fp16, [1, 256, 250]> var_190_cast_fp16 = conv(bias = const_14_to_fp16, dilations = input_37_dilations_0, groups = input_37_groups_0, pad = input_37_pad_0, pad_type = input_37_pad_type_0, strides = input_37_strides_0, weight = const_13_to_fp16, x = input_21_cast_fp16)[name = tensor<string, []>("op_190_cast_fp16")];
            tensor<fp16, [1, 256, 250]> input_39_cast_fp16 = add(x = var_176_cast_fp16, y = var_190_cast_fp16)[name = tensor<string, []>("input_39_cast_fp16")];
            tensor<fp16, [1, 256, 250]> input_41_cast_fp16 = relu(x = input_39_cast_fp16)[name = tensor<string, []>("input_41_cast_fp16")];
            tensor<string, []> input_43_pad_type_0 = const()[name = tensor<string, []>("input_43_pad_type_0"), val = tensor<string, []>("valid")];
            tensor<int32, [1]> input_43_strides_0 = const()[name = tensor<string, []>("input_43_strides_0"), val = tensor<int32, [1]>([1])];
            tensor<int32, [2]> input_43_pad_0 = const()[name = tensor<string, []>("input_43_pad_0"), val = tensor<int32, [2]>([0, 0])];
            tensor<int32, [1]> input_43_dilations_0 = const()[name = tensor<string, []>("input_43_dilations_0"), val = tensor<int32, [1]>([1])];
            tensor<int32, []> input_43_groups_0 = const()[name = tensor<string, []>("input_43_groups_0"), val = tensor<int32, []>(1)];
            tensor<fp16, [64, 256, 1]> const_15_to_fp16 = const()[name = tensor<string, []>("const_15_to_fp16"), val = tensor<fp16, [64, 256, 1]>(BLOBFILE(path = tensor<string, []>("@model_path/weights/weight.bin"), offset = tensor<uint64, []>(151744)))];
            tensor<fp16, [64]> const_16_to_fp16 = const()[name = tensor<string, []>("const_16_to_fp16"), val = tensor<fp16, [64]>(BLOBFILE(path = tensor<string, []>("@model_path/weights/weight.bin"), offset = tensor<uint64, []>(184576)))];
            tensor<fp16, [1, 64, 250]> input_45_cast_fp16 = conv(bias = const_16_to_fp16, dilations = input_43_dilations_0, groups = input_43_groups_0, pad = input_43_pad_0, pad_type = input_43_pad_type_0, strides = input_43_strides_0, weight = const_15_to_fp16, x = input_41_cast_fp16)[name = tensor<string, []>("input_45_cast_fp16")];
            tensor<fp16, [1, 64, 250]> input_47_cast_fp16 = relu(x = input_45_cast_fp16)[name = tensor<string, []>("input_47_cast_fp16")];
            tensor<string, []> input_49_pad_type_0 = const()[name = tensor<string, []>("input_49_pad_type_0"), val = tensor<string, []>("custom")];
            tensor<int32, [2]> input_49_pad_0 = const()[name = tensor<string, []>("input_49_pad_0"), val = tensor<int32, [2]>([2, 2])];
            tensor<int32, [1]> input_49_strides_0 = const()[name = tensor<string, []>("input_49_strides_0"), val = tensor<int32, [1]>([1])];
            tensor<int32, [1]> input_49_dilations_0 = const()[name = tensor<string, []>("input_49_dilations_0"), val = tensor<int32, [1]>([1])];
            tensor<int32, []> input_49_groups_0 = const()[name = tensor<string, []>("input_49_groups_0"), val = tensor<int32, []>(1)];
            tensor<fp16, [64, 64, 5]> const_17_to_fp16 = const()[name = tensor<string, []>("const_17_to_fp16"), val = tensor<fp16, [64, 64, 5]>(BLOBFILE(path = tensor<string, []>("@model_path/weights/weight.bin"), offset = tensor<uint64, []>(184768)))];
            tensor<fp16, [64]> const_18_to_fp16 = const()[name = tensor<string, []>("const_18_to_fp16"), val = tensor<fp16, [64]>(BLOBFILE(path = tensor<string, []>("@model_path/weights/weight.bin"), offset = tensor<uint64, []>(225792)))];
            tensor<fp16, [1, 64, 250]> input_51_cast_fp16 = conv(bias = const_18_to_fp16, dilations = input_49_dilations_0, groups = input_49_groups_0, pad = input_49_pad_0, pad_type = input_49_pad_type_0, strides = input_49_strides_0, weight = const_17_to_fp16, x = input_47_cast_fp16)[name = tensor<string, []>("input_51_cast_fp16")];
            tensor<fp16, [1, 64, 250]> input_53_cast_fp16 = relu(x = input_51_cast_fp16)[name = tensor<string, []>("input_53_cast_fp16")];
            tensor<string, []> input_55_pad_type_0 = const()[name = tensor<string, []>("input_55_pad_type_0"), val = tensor<string, []>("valid")];
            tensor<int32, [1]> input_55_strides_0 = const()[name = tensor<string, []>("input_55_strides_0"), val = tensor<int32, [1]>([1])];
            tensor<int32, [2]> input_55_pad_0 = const()[name = tensor<string, []>("input_55_pad_0"), val = tensor<int32, [2]>([0, 0])];
            tensor<int32, [1]> input_55_dilations_0 = const()[name = tensor<string, []>("input_55_dilations_0"), val = tensor<int32, [1]>([1])];
            tensor<int32, []> input_55_groups_0 = const()[name = tensor<string, []>("input_55_groups_0"), val = tensor<int32, []>(1)];
            tensor<fp16, [256, 64, 1]> const_19_to_fp16 = const()[name = tensor<string, []>("const_19_to_fp16"), val = tensor<fp16, [256, 64, 1]>(BLOBFILE(path = tensor<string, []>("@model_path/weights/weight.bin"), offset = tensor<uint64, []>(225984)))];
            tensor<fp16, [256]> const_20_to_fp16 = const()[name = tensor<string, []>("const_20_to_fp16"), val = tensor<fp16, [256]>(BLOBFILE(path = tensor<string, []>("@model_path/weights/weight.bin"), offset = tensor<uint64, []>(258816)))];
            tensor<fp16, [1, 256, 250]> var_272_cast_fp16 = conv(bias = const_20_to_fp16, dilations = input_55_dilations_0, groups = input_55_groups_0, pad = input_55_pad_0, pad_type = input_55_pad_type_0, strides = input_55_strides_0, weight = const_19_to_fp16, x = input_53_cast_fp16)[name = tensor<string, []>("op_272_cast_fp16")];
            tensor<fp16, [1, 256, 250]> input_57_cast_fp16 = add(x = var_272_cast_fp16, y = input_41_cast_fp16)[name = tensor<string, []>("input_57_cast_fp16")];
            tensor<fp16, [1, 256, 250]> input_59_cast_fp16 = relu(x = input_57_cast_fp16)[name = tensor<string, []>("input_59_cast_fp16")];
            tensor<string, []> input_61_pad_type_0 = const()[name = tensor<string, []>("input_61_pad_type_0"), val = tensor<string, []>("valid")];
            tensor<int32, [1]> input_61_strides_0 = const()[name = tensor<string, []>("input_61_strides_0"), val = tensor<int32, [1]>([1])];
            tensor<int32, [2]> input_61_pad_0 = const()[name = tensor<string, []>("input_61_pad_0"), val = tensor<int32, [2]>([0, 0])];
            tensor<int32, [1]> input_61_dilations_0 = const()[name = tensor<string, []>("input_61_dilations_0"), val = tensor<int32, [1]>([1])];
            tensor<int32, []> input_61_groups_0 = const()[name = tensor<string, []>("input_61_groups_0"), val = tensor<int32, []>(1)];
            tensor<fp16, [64, 256, 1]> const_21_to_fp16 = const()[name = tensor<string, []>("const_21_to_fp16"), val = tensor<fp16, [64, 256, 1]>(BLOBFILE(path = tensor<string, []>("@model_path/weights/weight.bin"), offset = tensor<uint64, []>(259392)))];
            tensor<fp16, [64]> const_22_to_fp16 = const()[name = tensor<string, []>("const_22_to_fp16"), val = tensor<fp16, [64]>(BLOBFILE(path = tensor<string, []>("@model_path/weights/weight.bin"), offset = tensor<uint64, []>(292224)))];
            tensor<fp16, [1, 64, 250]> input_63_cast_fp16 = conv(bias = const_22_to_fp16, dilations = input_61_dilations_0, groups = input_61_groups_0, pad = input_61_pad_0, pad_type = input_61_pad_type_0, strides = input_61_strides_0, weight = const_21_to_fp16, x = input_59_cast_fp16)[name = tensor<string, []>("input_63_cast_fp16")];
            tensor<fp16, [1, 64, 250]> input_65_cast_fp16 = relu(x = input_63_cast_fp16)[name = tensor<string, []>("input_65_cast_fp16")];
            tensor<string, []> input_67_pad_type_0 = const()[name = tensor<string, []>("input_67_pad_type_0"), val = tensor<string, []>("custom")];
            tensor<int32, [2]> input_67_pad_0 = const()[name = tensor<string, []>("input_67_pad_0"), val = tensor<int32, [2]>([2, 2])];
            tensor<int32, [1]> input_67_strides_0 = const()[name = tensor<string, []>("input_67_strides_0"), val = tensor<int32, [1]>([1])];
            tensor<int32, [1]> input_67_dilations_0 = const()[name = tensor<string, []>("input_67_dilations_0"), val = tensor<int32, [1]>([1])];
            tensor<int32, []> input_67_groups_0 = const()[name = tensor<string, []>("input_67_groups_0"), val = tensor<int32, []>(1)];
            tensor<fp16, [64, 64, 5]> const_23_to_fp16 = const()[name = tensor<string, []>("const_23_to_fp16"), val = tensor<fp16, [64, 64, 5]>(BLOBFILE(path = tensor<string, []>("@model_path/weights/weight.bin"), offset = tensor<uint64, []>(292416)))];
            tensor<fp16, [64]> const_24_to_fp16 = const()[name = tensor<string, []>("const_24_to_fp16"), val = tensor<fp16, [64]>(BLOBFILE(path = tensor<string, []>("@model_path/weights/weight.bin"), offset = tensor<uint64, []>(333440)))];
            tensor<fp16, [1, 64, 250]> input_69_cast_fp16 = conv(bias = const_24_to_fp16, dilations = input_67_dilations_0, groups = input_67_groups_0, pad = input_67_pad_0, pad_type = input_67_pad_type_0, strides = input_67_strides_0, weight = const_23_to_fp16, x = input_65_cast_fp16)[name = tensor<string, []>("input_69_cast_fp16")];
            tensor<fp16, [1, 64, 250]> input_71_cast_fp16 = relu(x = input_69_cast_fp16)[name = tensor<string, []>("input_71_cast_fp16")];
            tensor<string, []> input_73_pad_type_0 = const()[name = tensor<string, []>("input_73_pad_type_0"), val = tensor<string, []>("valid")];
            tensor<int32, [1]> input_73_strides_0 = const()[name = tensor<string, []>("input_73_strides_0"), val = tensor<int32, [1]>([1])];
            tensor<int32, [2]> input_73_pad_0 = const()[name = tensor<string, []>("input_73_pad_0"), val = tensor<int32, [2]>([0, 0])];
            tensor<int32, [1]> input_73_dilations_0 = const()[name = tensor<string, []>("input_73_dilations_0"), val = tensor<int32, [1]>([1])];
            tensor<int32, []> input_73_groups_0 = const()[name = tensor<string, []>("input_73_groups_0"), val = tensor<int32, []>(1)];
            tensor<fp16, [256, 64, 1]> const_25_to_fp16 = const()[name = tensor<string, []>("const_25_to_fp16"), val = tensor<fp16, [256, 64, 1]>(BLOBFILE(path = tensor<string, []>("@model_path/weights/weight.bin"), offset = tensor<uint64, []>(333632)))];
            tensor<fp16, [256]> const_26_to_fp16 = const()[name = tensor<string, []>("const_26_to_fp16"), val = tensor<fp16, [256]>(BLOBFILE(path = tensor<string, []>("@model_path/weights/weight.bin"), offset = tensor<uint64, []>(366464)))];
            tensor<fp16, [1, 256, 250]> var_354_cast_fp16 = conv(bias = const_26_to_fp16, dilations = input_73_dilations_0, groups = input_73_groups_0, pad = input_73_pad_0, pad_type = input_73_pad_type_0, strides = input_73_strides_0, weight = const_25_to_fp16, x = input_71_cast_fp16)[name = tensor<string, []>("op_354_cast_fp16")];
            tensor<fp16, [1, 256, 250]> input_75_cast_fp16 = add(x = var_354_cast_fp16, y = input_59_cast_fp16)[name = tensor<string, []>("input_75_cast_fp16")];
            tensor<fp16, [1, 256, 250]> input_77_cast_fp16 = relu(x = input_75_cast_fp16)[name = tensor<string, []>("input_77_cast_fp16")];
            tensor<string, []> input_79_pad_type_0 = const()[name = tensor<string, []>("input_79_pad_type_0"), val = tensor<string, []>("valid")];
            tensor<int32, [1]> input_79_strides_0 = const()[name = tensor<string, []>("input_79_strides_0"), val = tensor<int32, [1]>([1])];
            tensor<int32, [2]> input_79_pad_0 = const()[name = tensor<string, []>("input_79_pad_0"), val = tensor<int32, [2]>([0, 0])];
            tensor<int32, [1]> input_79_dilations_0 = const()[name = tensor<string, []>("input_79_dilations_0"), val = tensor<int32, [1]>([1])];
            tensor<int32, []> input_79_groups_0 = const()[name = tensor<string, []>("input_79_groups_0"), val = tensor<int32, []>(1)];
            tensor<fp16, [64, 256, 1]> const_27_to_fp16 = const()[name = tensor<string, []>("const_27_to_fp16"), val = tensor<fp16, [64, 256, 1]>(BLOBFILE(path = tensor<string, []>("@model_path/weights/weight.bin"), offset = tensor<uint64, []>(367040)))];
            tensor<fp16, [64]> const_28_to_fp16 = const()[name = tensor<string, []>("const_28_to_fp16"), val = tensor<fp16, [64]>(BLOBFILE(path = tensor<string, []>("@model_path/weights/weight.bin"), offset = tensor<uint64, []>(399872)))];
            tensor<fp16, [1, 64, 250]> input_81_cast_fp16 = conv(bias = const_28_to_fp16, dilations = input_79_dilations_0, groups = input_79_groups_0, pad = input_79_pad_0, pad_type = input_79_pad_type_0, strides = input_79_strides_0, weight = const_27_to_fp16, x = input_77_cast_fp16)[name = tensor<string, []>("input_81_cast_fp16")];
            tensor<fp16, [1, 64, 250]> input_83_cast_fp16 = relu(x = input_81_cast_fp16)[name = tensor<string, []>("input_83_cast_fp16")];
            tensor<string, []> input_85_pad_type_0 = const()[name = tensor<string, []>("input_85_pad_type_0"), val = tensor<string, []>("custom")];
            tensor<int32, [2]> input_85_pad_0 = const()[name = tensor<string, []>("input_85_pad_0"), val = tensor<int32, [2]>([2, 2])];
            tensor<int32, [1]> input_85_strides_0 = const()[name = tensor<string, []>("input_85_strides_0"), val = tensor<int32, [1]>([2])];
            tensor<int32, [1]> input_85_dilations_0 = const()[name = tensor<string, []>("input_85_dilations_0"), val = tensor<int32, [1]>([1])];
            tensor<int32, []> input_85_groups_0 = const()[name = tensor<string, []>("input_85_groups_0"), val = tensor<int32, []>(1)];
            tensor<fp16, [64, 64, 5]> const_29_to_fp16 = const()[name = tensor<string, []>("const_29_to_fp16"), val = tensor<fp16, [64, 64, 5]>(BLOBFILE(path = tensor<string, []>("@model_path/weights/weight.bin"), offset = tensor<uint64, []>(400064)))];
            tensor<fp16, [64]> const_30_to_fp16 = const()[name = tensor<string, []>("const_30_to_fp16"), val = tensor<fp16, [64]>(BLOBFILE(path = tensor<string, []>("@model_path/weights/weight.bin"), offset = tensor<uint64, []>(441088)))];
            tensor<fp16, [1, 64, 125]> input_87_cast_fp16 = conv(bias = const_30_to_fp16, dilations = input_85_dilations_0, groups = input_85_groups_0, pad = input_85_pad_0, pad_type = input_85_pad_type_0, strides = input_85_strides_0, weight = const_29_to_fp16, x = input_83_cast_fp16)[name = tensor<string, []>("input_87_cast_fp16")];
            tensor<fp16, [1, 64, 125]> input_89_cast_fp16 = relu(x = input_87_cast_fp16)[name = tensor<string, []>("input_89_cast_fp16")];
            tensor<string, []> input_91_pad_type_0 = const()[name = tensor<string, []>("input_91_pad_type_0"), val = tensor<string, []>("valid")];
            tensor<int32, [1]> input_91_strides_0 = const()[name = tensor<string, []>("input_91_strides_0"), val = tensor<int32, [1]>([1])];
            tensor<int32, [2]> input_91_pad_0 = const()[name = tensor<string, []>("input_91_pad_0"), val = tensor<int32, [2]>([0, 0])];
            tensor<int32, [1]> input_91_dilations_0 = const()[name = tensor<string, []>("input_91_dilations_0"), val = tensor<int32, [1]>([1])];
            tensor<int32, []> input_91_groups_0 = const()[name = tensor<string, []>("input_91_groups_0"), val = tensor<int32, []>(1)];
            tensor<fp16, [256, 64, 1]> const_31_to_fp16 = const()[name = tensor<string, []>("const_31_to_fp16"), val = tensor<fp16, [256, 64, 1]>(BLOBFILE(path = tensor<string, []>("@model_path/weights/weight.bin"), offset = tensor<uint64, []>(441280)))];
            tensor<fp16, [256]> const_32_to_fp16 = const()[name = tensor<string, []>("const_32_to_fp16"), val = tensor<fp16, [256]>(BLOBFILE(path = tensor<string, []>("@model_path/weights/weight.bin"), offset = tensor<uint64, []>(474112)))];
            tensor<fp16, [1, 256, 125]> var_448_cast_fp16 = conv(bias = const_32_to_fp16, dilations = input_91_dilations_0, groups = input_91_groups_0, pad = input_91_pad_0, pad_type = input_91_pad_type_0, strides = input_91_strides_0, weight = const_31_to_fp16, x = input_89_cast_fp16)[name = tensor<string, []>("op_448_cast_fp16")];
            tensor<int32, [1]> var_449 = const()[name = tensor<string, []>("op_449"), val = tensor<int32, [1]>([2])];
            tensor<int32, [1]> var_450 = const()[name = tensor<string, []>("op_450"), val = tensor<int32, [1]>([2])];
            tensor<string, []> var_452_pad_type_0 = const()[name = tensor<string, []>("op_452_pad_type_0"), val = tensor<string, []>("custom")];
            tensor<int32, [2]> var_452_pad_0 = const()[name = tensor<string, []>("op_452_pad_0"), val = tensor<int32, [2]>([0, 0])];
            tensor<bool, []> var_452_exclude_padding_from_average_0 = const()[name = tensor<string, []>("op_452_exclude_padding_from_average_0"), val = tensor<bool, []>(false)];
            tensor<bool, []> var_452_ceil_mode_0 = const()[name = tensor<string, []>("op_452_ceil_mode_0"), val = tensor<bool, []>(true)];
            tensor<fp16, [1, 256, 125]> var_452_cast_fp16 = avg_pool(ceil_mode = var_452_ceil_mode_0, exclude_padding_from_average = var_452_exclude_padding_from_average_0, kernel_sizes = var_449, pad = var_452_pad_0, pad_type = var_452_pad_type_0, strides = var_450, x = input_77_cast_fp16)[name = tensor<string, []>("op_452_cast_fp16")];
            tensor<fp16, [1, 256, 125]> input_93_cast_fp16 = add(x = var_448_cast_fp16, y = var_452_cast_fp16)[name = tensor<string, []>("input_93_cast_fp16")];
            tensor<fp16, [1, 256, 125]> input_95_cast_fp16 = relu(x = input_93_cast_fp16)[name = tensor<string, []>("input_95_cast_fp16")];
            tensor<string, []> input_97_pad_type_0 = const()[name = tensor<string, []>("input_97_pad_type_0"), val = tensor<string, []>("valid")];
            tensor<int32, [1]> input_97_strides_0 = const()[name = tensor<string, []>("input_97_strides_0"), val = tensor<int32, [1]>([1])];
            tensor<int32, [2]> input_97_pad_0 = const()[name = tensor<string, []>("input_97_pad_0"), val = tensor<int32, [2]>([0, 0])];
            tensor<int32, [1]> input_97_dilations_0 = const()[name = tensor<string, []>("input_97_dilations_0"), val = tensor<int32, [1]>([1])];
            tensor<int32, []> input_97_groups_0 = const()[name = tensor<string, []>("input_97_groups_0"), val = tensor<int32, []>(1)];
            tensor<fp16, [64, 256, 1]> const_33_to_fp16 = const()[name = tensor<string, []>("const_33_to_fp16"), val = tensor<fp16, [64, 256, 1]>(BLOBFILE(path = tensor<string, []>("@model_path/weights/weight.bin"), offset = tensor<uint64, []>(474688)))];
            tensor<fp16, [64]> const_34_to_fp16 = const()[name = tensor<string, []>("const_34_to_fp16"), val = tensor<fp16, [64]>(BLOBFILE(path = tensor<string, []>("@model_path/weights/weight.bin"), offset = tensor<uint64, []>(507520)))];
            tensor<fp16, [1, 64, 125]> input_99_cast_fp16 = conv(bias = const_34_to_fp16, dilations = input_97_dilations_0, groups = input_97_groups_0, pad = input_97_pad_0, pad_type = input_97_pad_type_0, strides = input_97_strides_0, weight = const_33_to_fp16, x = input_95_cast_fp16)[name = tensor<string, []>("input_99_cast_fp16")];
            tensor<fp16, [1, 64, 125]> input_101_cast_fp16 = relu(x = input_99_cast_fp16)[name = tensor<string, []>("input_101_cast_fp16")];
            tensor<string, []> input_103_pad_type_0 = const()[name = tensor<string, []>("input_103_pad_type_0"), val = tensor<string, []>("custom")];
            tensor<int32, [2]> input_103_pad_0 = const()[name = tensor<string, []>("input_103_pad_0"), val = tensor<int32, [2]>([2, 2])];
            tensor<int32, [1]> input_103_strides_0 = const()[name = tensor<string, []>("input_103_strides_0"), val = tensor<int32, [1]>([1])];
            tensor<int32, [1]> input_103_dilations_0 = const()[name = tensor<string, []>("input_103_dilations_0"), val = tensor<int32, [1]>([1])];
            tensor<int32, []> input_103_groups_0 = const()[name = tensor<string, []>("input_103_groups_0"), val = tensor<int32, []>(1)];
            tensor<fp16, [64, 64, 5]> const_35_to_fp16 = const()[name = tensor<string, []>("const_35_to_fp16"), val = tensor<fp16, [64, 64, 5]>(BLOBFILE(path = tensor<string, []>("@model_path/weights/weight.bin"), offset = tensor<uint64, []>(507712)))];
            tensor<fp16, [64]> const_36_to_fp16 = const()[name = tensor<string, []>("const_36_to_fp16"), val = tensor<fp16, [64]>(BLOBFILE(path = tensor<string, []>("@model_path/weights/weight.bin"), offset = tensor<uint64, []>(548736)))];
            tensor<fp16, [1, 64, 125]> input_105_cast_fp16 = conv(bias = const_36_to_fp16, dilations = input_103_dilations_0, groups = input_103_groups_0, pad = input_103_pad_0, pad_type = input_103_pad_type_0, strides = input_103_strides_0, weight = const_35_to_fp16, x = input_101_cast_fp16)[name = tensor<string, []>("input_105_cast_fp16")];
            tensor<fp16, [1, 64, 125]> input_107_cast_fp16 = relu(x = input_105_cast_fp16)[name = tensor<string, []>("input_107_cast_fp16")];
            tensor<string, []> input_109_pad_type_0 = const()[name = tensor<string, []>("input_109_pad_type_0"), val = tensor<string, []>("valid")];
            tensor<int32, [1]> input_109_strides_0 = const()[name = tensor<string, []>("input_109_strides_0"), val = tensor<int32, [1]>([1])];
            tensor<int32, [2]> input_109_pad_0 = const()[name = tensor<string, []>("input_109_pad_0"), val = tensor<int32, [2]>([0, 0])];
            tensor<int32, [1]> input_109_dilations_0 = const()[name = tensor<string, []>("input_109_dilations_0"), val = tensor<int32, [1]>([1])];
            tensor<int32, []> input_109_groups_0 = const()[name = tensor<string, []>("input_109_groups_0"), val = tensor<int32, []>(1)];
            tensor<fp16, [256, 64, 1]> const_37_to_fp16 = const()[name = tensor<string, []>("const_37_to_fp16"), val = tensor<fp16, [256, 64, 1]>(BLOBFILE(path = tensor<string, []>("@model_path/weights/weight.bin"), offset = tensor<uint64, []>(548928)))];
            tensor<fp16, [256]> const_38_to_fp16 = const()[name = tensor<string, []>("const_38_to_fp16"), val = tensor<fp16, [256]>(BLOBFILE(path = tensor<string, []>("@model_path/weights/weight.bin"), offset = tensor<uint64, []>(581760)))];
            tensor<fp16, [1, 256, 125]> var_534_cast_fp16 = conv(bias = const_38_to_fp16, dilations = input_109_dilations_0, groups = input_109_groups_0, pad = input_109_pad_0, pad_type = input_109_pad_type_0, strides = input_109_strides_0, weight = const_37_to_fp16, x = input_107_cast_fp16)[name = tensor<string, []>("op_534_cast_fp16")];
            tensor<fp16, [1, 256, 125]> input_111_cast_fp16 = add(x = var_534_cast_fp16, y = input_95_cast_fp16)[name = tensor<string, []>("input_111_cast_fp16")];
            tensor<fp16, [1, 256, 125]> input_113_cast_fp16 = relu(x = input_111_cast_fp16)[name = tensor<string, []>("input_113_cast_fp16")];
            tensor<string, []> input_115_pad_type_0 = const()[name = tensor<string, []>("input_115_pad_type_0"), val = tensor<string, []>("valid")];
            tensor<int32, [1]> input_115_strides_0 = const()[name = tensor<string, []>("input_115_strides_0"), val = tensor<int32, [1]>([1])];
            tensor<int32, [2]> input_115_pad_0 = const()[name = tensor<string, []>("input_115_pad_0"), val = tensor<int32, [2]>([0, 0])];
            tensor<int32, [1]> input_115_dilations_0 = const()[name = tensor<string, []>("input_115_dilations_0"), val = tensor<int32, [1]>([1])];
            tensor<int32, []> input_115_groups_0 = const()[name = tensor<string, []>("input_115_groups_0"), val = tensor<int32, []>(1)];
            tensor<fp16, [64, 256, 1]> const_39_to_fp16 = const()[name = tensor<string, []>("const_39_to_fp16"), val = tensor<fp16, [64, 256, 1]>(BLOBFILE(path = tensor<string, []>("@model_path/weights/weight.bin"), offset = tensor<uint64, []>(582336)))];
            tensor<fp16, [64]> const_40_to_fp16 = const()[name = tensor<string, []>("const_40_to_fp16"), val = tensor<fp16, [64]>(BLOBFILE(path = tensor<string, []>("@model_path/weights/weight.bin"), offset = tensor<uint64, []>(615168)))];
            tensor<fp16, [1, 64, 125]> input_117_cast_fp16 = conv(bias = const_40_to_fp16, dilations = input_115_dilations_0, groups = input_115_groups_0, pad = input_115_pad_0, pad_type = input_115_pad_type_0, strides = input_115_strides_0, weight = const_39_to_fp16, x = input_113_cast_fp16)[name = tensor<string, []>("input_117_cast_fp16")];
            tensor<fp16, [1, 64, 125]> input_119_cast_fp16 = relu(x = input_117_cast_fp16)[name = tensor<string, []>("input_119_cast_fp16")];
            tensor<string, []> input_121_pad_type_0 = const()[name = tensor<string, []>("input_121_pad_type_0"), val = tensor<string, []>("custom")];
            tensor<int32, [2]> input_121_pad_0 = const()[name = tensor<string, []>("input_121_pad_0"), val = tensor<int32, [2]>([2, 2])];
            tensor<int32, [1]> input_121_strides_0 = const()[name = tensor<string, []>("input_121_strides_0"), val = tensor<int32, [1]>([1])];
            tensor<int32, [1]> input_121_dilations_0 = const()[name = tensor<string, []>("input_121_dilations_0"), val = tensor<int32, [1]>([1])];
            tensor<int32, []> input_121_groups_0 = const()[name = tensor<string, []>("input_121_groups_0"), val = tensor<int32, []>(1)];
            tensor<fp16, [64, 64, 5]> const_41_to_fp16 = const()[name = tensor<string, []>("const_41_to_fp16"), val = tensor<fp16, [64, 64, 5]>(BLOBFILE(path = tensor<string, []>("@model_path/weights/weight.bin"), offset = tensor<uint64, []>(615360)))];
            tensor<fp16, [64]> const_42_to_fp16 = const()[name = tensor<string, []>("const_42_to_fp16"), val = tensor<fp16, [64]>(BLOBFILE(path = tensor<string, []>("@model_path/weights/weight.bin"), offset = tensor<uint64, []>(656384)))];
            tensor<fp16, [1, 64, 125]> input_123_cast_fp16 = conv(bias = const_42_to_fp16, dilations = input_121_dilations_0, groups = input_121_groups_0, pad = input_121_pad_0, pad_type = input_121_pad_type_0, strides = input_121_strides_0, weight = const_41_to_fp16, x = input_119_cast_fp16)[name = tensor<string, []>("input_123_cast_fp16")];
            tensor<fp16, [1, 64, 125]> input_125_cast_fp16 = relu(x = input_123_cast_fp16)[name = tensor<string, []>("input_125_cast_fp16")];
            tensor<string, []> input_127_pad_type_0 = const()[name = tensor<string, []>("input_127_pad_type_0"), val = tensor<string, []>("valid")];
            tensor<int32, [1]> input_127_strides_0 = const()[name = tensor<string, []>("input_127_strides_0"), val = tensor<int32, [1]>([1])];
            tensor<int32, [2]> input_127_pad_0 = const()[name = tensor<string, []>("input_127_pad_0"), val = tensor<int32, [2]>([0, 0])];
            tensor<int32, [1]> input_127_dilations_0 = const()[name = tensor<string, []>("input_127_dilations_0"), val = tensor<int32, [1]>([1])];
            tensor<int32, []> input_127_groups_0 = const()[name = tensor<string, []>("input_127_groups_0"), val = tensor<int32, []>(1)];
            tensor<fp16, [256, 64, 1]> const_43_to_fp16 = const()[name = tensor<string, []>("const_43_to_fp16"), val = tensor<fp16, [256, 64, 1]>(BLOBFILE(path = tensor<string, []>("@model_path/weights/weight.bin"), offset = tensor<uint64, []>(656576)))];
            tensor<fp16, [256]> const_44_to_fp16 = const()[name = tensor<string, []>("const_44_to_fp16"), val = tensor<fp16, [256]>(BLOBFILE(path = tensor<string, []>("@model_path/weights/weight.bin"), offset = tensor<uint64, []>(689408)))];
            tensor<fp16, [1, 256, 125]> var_616_cast_fp16 = conv(bias = const_44_to_fp16, dilations = input_127_dilations_0, groups = input_127_groups_0, pad = input_127_pad_0, pad_type = input_127_pad_type_0, strides = input_127_strides_0, weight = const_43_to_fp16, x = input_125_cast_fp16)[name = tensor<string, []>("op_616_cast_fp16")];
            tensor<fp16, [1, 256, 125]> input_129_cast_fp16 = add(x = var_616_cast_fp16, y = input_113_cast_fp16)[name = tensor<string, []>("input_129_cast_fp16")];
            tensor<fp16, [1, 256, 125]> input_131_cast_fp16 = relu(x = input_129_cast_fp16)[name = tensor<string, []>("input_131_cast_fp16")];
            tensor<string, []> input_133_pad_type_0 = const()[name = tensor<string, []>("input_133_pad_type_0"), val = tensor<string, []>("valid")];
            tensor<int32, [1]> input_133_strides_0 = const()[name = tensor<string, []>("input_133_strides_0"), val = tensor<int32, [1]>([1])];
            tensor<int32, [2]> input_133_pad_0 = const()[name = tensor<string, []>("input_133_pad_0"), val = tensor<int32, [2]>([0, 0])];
            tensor<int32, [1]> input_133_dilations_0 = const()[name = tensor<string, []>("input_133_dilations_0"), val = tensor<int32, [1]>([1])];
            tensor<int32, []> input_133_groups_0 = const()[name = tensor<string, []>("input_133_groups_0"), val = tensor<int32, []>(1)];
            tensor<fp16, [64, 256, 1]> const_45_to_fp16 = const()[name = tensor<string, []>("const_45_to_fp16"), val = tensor<fp16, [64, 256, 1]>(BLOBFILE(path = tensor<string, []>("@model_path/weights/weight.bin"), offset = tensor<uint64, []>(689984)))];
            tensor<fp16, [64]> const_46_to_fp16 = const()[name = tensor<string, []>("const_46_to_fp16"), val = tensor<fp16, [64]>(BLOBFILE(path = tensor<string, []>("@model_path/weights/weight.bin"), offset = tensor<uint64, []>(722816)))];
            tensor<fp16, [1, 64, 125]> input_135_cast_fp16 = conv(bias = const_46_to_fp16, dilations = input_133_dilations_0, groups = input_133_groups_0, pad = input_133_pad_0, pad_type = input_133_pad_type_0, strides = input_133_strides_0, weight = const_45_to_fp16, x = input_131_cast_fp16)[name = tensor<string, []>("input_135_cast_fp16")];
            tensor<fp16, [1, 64, 125]> input_137_cast_fp16 = relu(x = input_135_cast_fp16)[name = tensor<string, []>("input_137_cast_fp16")];
            tensor<string, []> input_139_pad_type_0 = const()[name = tensor<string, []>("input_139_pad_type_0"), val = tensor<string, []>("custom")];
            tensor<int32, [2]> input_139_pad_0 = const()[name = tensor<string, []>("input_139_pad_0"), val = tensor<int32, [2]>([2, 2])];
            tensor<int32, [1]> input_139_strides_0 = const()[name = tensor<string, []>("input_139_strides_0"), val = tensor<int32, [1]>([1])];
            tensor<int32, [1]> input_139_dilations_0 = const()[name = tensor<string, []>("input_139_dilations_0"), val = tensor<int32, [1]>([1])];
            tensor<int32, []> input_139_groups_0 = const()[name = tensor<string, []>("input_139_groups_0"), val = tensor<int32, []>(1)];
            tensor<fp16, [64, 64, 5]> const_47_to_fp16 = const()[name = tensor<string, []>("const_47_to_fp16"), val = tensor<fp16, [64, 64, 5]>(BLOBFILE(path = tensor<string, []>("@model_path/weights/weight.bin"), offset = tensor<uint64, []>(723008)))];
            tensor<fp16, [64]> const_48_to_fp16 = const()[name = tensor<string, []>("const_48_to_fp16"), val = tensor<fp16, [64]>(BLOBFILE(path = tensor<string, []>("@model_path/weights/weight.bin"), offset = tensor<uint64, []>(764032)))];
            tensor<fp16, [1, 64, 125]> input_141_cast_fp16 = conv(bias = const_48_to_fp16, dilations = input_139_dilations_0, groups = input_139_groups_0, pad = input_139_pad_0, pad_type = input_139_pad_type_0, strides = input_139_strides_0, weight = const_47_to_fp16, x = input_137_cast_fp16)[name = tensor<string, []>("input_141_cast_fp16")];
            tensor<fp16, [1, 64, 125]> input_143_cast_fp16 = relu(x = input_141_cast_fp16)[name = tensor<string, []>("input_143_cast_fp16")];
            tensor<string, []> input_145_pad_type_0 = const()[name = tensor<string, []>("input_145_pad_type_0"), val = tensor<string, []>("valid")];
            tensor<int32, [1]> input_145_strides_0 = const()[name = tensor<string, []>("input_145_strides_0"), val = tensor<int32, [1]>([1])];
            tensor<int32, [2]> input_145_pad_0 = const()[name = tensor<string, []>("input_145_pad_0"), val = tensor<int32, [2]>([0, 0])];
            tensor<int32, [1]> input_145_dilations_0 = const()[name = tensor<string, []>("input_145_dilations_0"), val = tensor<int32, [1]>([1])];
            tensor<int32, []> input_145_groups_0 = const()[name = tensor<string, []>("input_145_groups_0"), val = tensor<int32, []>(1)];
            tensor<fp16, [256, 64, 1]> const_49_to_fp16 = const()[name = tensor<string, []>("const_49_to_fp16"), val = tensor<fp16, [256, 64, 1]>(BLOBFILE(path = tensor<string, []>("@model_path/weights/weight.bin"), offset = tensor<uint64, []>(764224)))];
            tensor<fp16, [256]> const_50_to_fp16 = const()[name = tensor<string, []>("const_50_to_fp16"), val = tensor<fp16, [256]>(BLOBFILE(path = tensor<string, []>("@model_path/weights/weight.bin"), offset = tensor<uint64, []>(797056)))];
            tensor<fp16, [1, 256, 125]> var_698_cast_fp16 = conv(bias = const_50_to_fp16, dilations = input_145_dilations_0, groups = input_145_groups_0, pad = input_145_pad_0, pad_type = input_145_pad_type_0, strides = input_145_strides_0, weight = const_49_to_fp16, x = input_143_cast_fp16)[name = tensor<string, []>("op_698_cast_fp16")];
            tensor<fp16, [1, 256, 125]> input_147_cast_fp16 = add(x = var_698_cast_fp16, y = input_131_cast_fp16)[name = tensor<string, []>("input_147_cast_fp16")];
            tensor<fp16, [1, 256, 125]> input_149_cast_fp16 = relu(x = input_147_cast_fp16)[name = tensor<string, []>("input_149_cast_fp16")];
            tensor<string, []> input_151_pad_type_0 = const()[name = tensor<string, []>("input_151_pad_type_0"), val = tensor<string, []>("valid")];
            tensor<int32, [1]> input_151_strides_0 = const()[name = tensor<string, []>("input_151_strides_0"), val = tensor<int32, [1]>([1])];
            tensor<int32, [2]> input_151_pad_0 = const()[name = tensor<string, []>("input_151_pad_0"), val = tensor<int32, [2]>([0, 0])];
            tensor<int32, [1]> input_151_dilations_0 = const()[name = tensor<string, []>("input_151_dilations_0"), val = tensor<int32, [1]>([1])];
            tensor<int32, []> input_151_groups_0 = const()[name = tensor<string, []>("input_151_groups_0"), val = tensor<int32, []>(1)];
            tensor<fp16, [64, 256, 1]> const_51_to_fp16 = const()[name = tensor<string, []>("const_51_to_fp16"), val = tensor<fp16, [64, 256, 1]>(BLOBFILE(path = tensor<string, []>("@model_path/weights/weight.bin"), offset = tensor<uint64, []>(797632)))];
            tensor<fp16, [64]> const_52_to_fp16 = const()[name = tensor<string, []>("const_52_to_fp16"), val = tensor<fp16, [64]>(BLOBFILE(path = tensor<string, []>("@model_path/weights/weight.bin"), offset = tensor<uint64, []>(830464)))];
            tensor<fp16, [1, 64, 125]> input_153_cast_fp16 = conv(bias = const_52_to_fp16, dilations = input_151_dilations_0, groups = input_151_groups_0, pad = input_151_pad_0, pad_type = input_151_pad_type_0, strides = input_151_strides_0, weight = const_51_to_fp16, x = input_149_cast_fp16)[name = tensor<string, []>("input_153_cast_fp16")];
            tensor<fp16, [1, 64, 125]> input_155_cast_fp16 = relu(x = input_153_cast_fp16)[name = tensor<string, []>("input_155_cast_fp16")];
            tensor<string, []> input_157_pad_type_0 = const()[name = tensor<string, []>("input_157_pad_type_0"), val = tensor<string, []>("custom")];
            tensor<int32, [2]> input_157_pad_0 = const()[name = tensor<string, []>("input_157_pad_0"), val = tensor<int32, [2]>([2, 2])];
            tensor<int32, [1]> input_157_strides_0 = const()[name = tensor<string, []>("input_157_strides_0"), val = tensor<int32, [1]>([2])];
            tensor<int32, [1]> input_157_dilations_0 = const()[name = tensor<string, []>("input_157_dilations_0"), val = tensor<int32, [1]>([1])];
            tensor<int32, []> input_157_groups_0 = const()[name = tensor<string, []>("input_157_groups_0"), val = tensor<int32, []>(1)];
            tensor<fp16, [64, 64, 5]> const_53_to_fp16 = const()[name = tensor<string, []>("const_53_to_fp16"), val = tensor<fp16, [64, 64, 5]>(BLOBFILE(path = tensor<string, []>("@model_path/weights/weight.bin"), offset = tensor<uint64, []>(830656)))];
            tensor<fp16, [64]> const_54_to_fp16 = const()[name = tensor<string, []>("const_54_to_fp16"), val = tensor<fp16, [64]>(BLOBFILE(path = tensor<string, []>("@model_path/weights/weight.bin"), offset = tensor<uint64, []>(871680)))];
            tensor<fp16, [1, 64, 63]> input_159_cast_fp16 = conv(bias = const_54_to_fp16, dilations = input_157_dilations_0, groups = input_157_groups_0, pad = input_157_pad_0, pad_type = input_157_pad_type_0, strides = input_157_strides_0, weight = const_53_to_fp16, x = input_155_cast_fp16)[name = tensor<string, []>("input_159_cast_fp16")];
            tensor<fp16, [1, 64, 63]> input_161_cast_fp16 = relu(x = input_159_cast_fp16)[name = tensor<string, []>("input_161_cast_fp16")];
            tensor<string, []> input_163_pad_type_0 = const()[name = tensor<string, []>("input_163_pad_type_0"), val = tensor<string, []>("valid")];
            tensor<int32, [1]> input_163_strides_0 = const()[name = tensor<string, []>("input_163_strides_0"), val = tensor<int32, [1]>([1])];
            tensor<int32, [2]> input_163_pad_0 = const()[name = tensor<string, []>("input_163_pad_0"), val = tensor<int32, [2]>([0, 0])];
            tensor<int32, [1]> input_163_dilations_0 = const()[name = tensor<string, []>("input_163_dilations_0"), val = tensor<int32, [1]>([1])];
            tensor<int32, []> input_163_groups_0 = const()[name = tensor<string, []>("input_163_groups_0"), val = tensor<int32, []>(1)];
            tensor<fp16, [256, 64, 1]> const_55_to_fp16 = const()[name = tensor<string, []>("const_55_to_fp16"), val = tensor<fp16, [256, 64, 1]>(BLOBFILE(path = tensor<string, []>("@model_path/weights/weight.bin"), offset = tensor<uint64, []>(871872)))];
            tensor<fp16, [256]> const_56_to_fp16 = const()[name = tensor<string, []>("const_56_to_fp16"), val = tensor<fp16, [256]>(BLOBFILE(path = tensor<string, []>("@model_path/weights/weight.bin"), offset = tensor<uint64, []>(904704)))];
            tensor<fp16, [1, 256, 63]> var_811_cast_fp16 = conv(bias = const_56_to_fp16, dilations = input_163_dilations_0, groups = input_163_groups_0, pad = input_163_pad_0, pad_type = input_163_pad_type_0, strides = input_163_strides_0, weight = const_55_to_fp16, x = input_161_cast_fp16)[name = tensor<string, []>("op_811_cast_fp16")];
            tensor<int32, [1]> var_812 = const()[name = tensor<string, []>("op_812"), val = tensor<int32, [1]>([2])];
            tensor<int32, [1]> var_813 = const()[name = tensor<string, []>("op_813"), val = tensor<int32, [1]>([2])];
            tensor<string, []> var_815_pad_type_0 = const()[name = tensor<string, []>("op_815_pad_type_0"), val = tensor<string, []>("custom")];
            tensor<int32, [2]> var_815_pad_0 = const()[name = tensor<string, []>("op_815_pad_0"), val = tensor<int32, [2]>([0, 0])];
            tensor<bool, []> var_815_exclude_padding_from_average_0 = const()[name = tensor<string, []>("op_815_exclude_padding_from_average_0"), val = tensor<bool, []>(false)];
            tensor<bool, []> var_815_ceil_mode_0 = const()[name = tensor<string, []>("op_815_ceil_mode_0"), val = tensor<bool, []>(true)];
            tensor<fp16, [1, 256, 63]> var_815_cast_fp16 = avg_pool(ceil_mode = var_815_ceil_mode_0, exclude_padding_from_average = var_815_exclude_padding_from_average_0, kernel_sizes = var_812, pad = var_815_pad_0, pad_type = var_815_pad_type_0, strides = var_813, x = input_149_cast_fp16)[name = tensor<string, []>("op_815_cast_fp16")];
            tensor<fp16, [1, 256, 63]> input_165_cast_fp16 = add(x = var_811_cast_fp16, y = var_815_cast_fp16)[name = tensor<string, []>("input_165_cast_fp16")];
            tensor<fp16, [1, 256, 63]> input_167_cast_fp16 = relu(x = input_165_cast_fp16)[name = tensor<string, []>("input_167_cast_fp16")];
            tensor<string, []> input_169_pad_type_0 = const()[name = tensor<string, []>("input_169_pad_type_0"), val = tensor<string, []>("valid")];
            tensor<int32, [1]> input_169_strides_0 = const()[name = tensor<string, []>("input_169_strides_0"), val = tensor<int32, [1]>([1])];
            tensor<int32, [2]> input_169_pad_0 = const()[name = tensor<string, []>("input_169_pad_0"), val = tensor<int32, [2]>([0, 0])];
            tensor<int32, [1]> input_169_dilations_0 = const()[name = tensor<string, []>("input_169_dilations_0"), val = tensor<int32, [1]>([1])];
            tensor<int32, []> input_169_groups_0 = const()[name = tensor<string, []>("input_169_groups_0"), val = tensor<int32, []>(1)];
            tensor<fp16, [64, 256, 1]> const_57_to_fp16 = const()[name = tensor<string, []>("const_57_to_fp16"), val = tensor<fp16, [64, 256, 1]>(BLOBFILE(path = tensor<string, []>("@model_path/weights/weight.bin"), offset = tensor<uint64, []>(905280)))];
            tensor<fp16, [64]> const_58_to_fp16 = const()[name = tensor<string, []>("const_58_to_fp16"), val = tensor<fp16, [64]>(BLOBFILE(path = tensor<string, []>("@model_path/weights/weight.bin"), offset = tensor<uint64, []>(938112)))];
            tensor<fp16, [1, 64, 63]> input_171_cast_fp16 = conv(bias = const_58_to_fp16, dilations = input_169_dilations_0, groups = input_169_groups_0, pad = input_169_pad_0, pad_type = input_169_pad_type_0, strides = input_169_strides_0, weight = const_57_to_fp16, x = input_167_cast_fp16)[name = tensor<string, []>("input_171_cast_fp16")];
            tensor<fp16, [1, 64, 63]> input_173_cast_fp16 = relu(x = input_171_cast_fp16)[name = tensor<string, []>("input_173_cast_fp16")];
            tensor<string, []> input_175_pad_type_0 = const()[name = tensor<string, []>("input_175_pad_type_0"), val = tensor<string, []>("custom")];
            tensor<int32, [2]> input_175_pad_0 = const()[name = tensor<string, []>("input_175_pad_0"), val = tensor<int32, [2]>([2, 2])];
            tensor<int32, [1]> input_175_strides_0 = const()[name = tensor<string, []>("input_175_strides_0"), val = tensor<int32, [1]>([1])];
            tensor<int32, [1]> input_175_dilations_0 = const()[name = tensor<string, []>("input_175_dilations_0"), val = tensor<int32, [1]>([1])];
            tensor<int32, []> input_175_groups_0 = const()[name = tensor<string, []>("input_175_groups_0"), val = tensor<int32, []>(1)];
            tensor<fp16, [64, 64, 5]> const_59_to_fp16 = const()[name = tensor<string, []>("const_59_to_fp16"), val = tensor<fp16, [64, 64, 5]>(BLOBFILE(path = tensor<string, []>("@model_path/weights/weight.bin"), offset = tensor<uint64, []>(938304)))];
            tensor<fp16, [64]> const_60_to_fp16 = const()[name = tensor<string, []>("const_60_to_fp16"), val = tensor<fp16, [64]>(BLOBFILE(path = tensor<string, []>("@model_path/weights/weight.bin"), offset = tensor<uint64, []>(979328)))];
            tensor<fp16, [1, 64, 63]> input_177_cast_fp16 = conv(bias = const_60_to_fp16, dilations = input_175_dilations_0, groups = input_175_groups_0, pad = input_175_pad_0, pad_type = input_175_pad_type_0, strides = input_175_strides_0, weight = const_59_to_fp16, x = input_173_cast_fp16)[name = tensor<string, []>("input_177_cast_fp16")];
            tensor<fp16, [1, 64, 63]> input_179_cast_fp16 = relu(x = input_177_cast_fp16)[name = tensor<string, []>("input_179_cast_fp16")];
            tensor<string, []> input_181_pad_type_0 = const()[name = tensor<string, []>("input_181_pad_type_0"), val = tensor<string, []>("valid")];
            tensor<int32, [1]> input_181_strides_0 = const()[name = tensor<string, []>("input_181_strides_0"), val = tensor<int32, [1]>([1])];
            tensor<int32, [2]> input_181_pad_0 = const()[name = tensor<string, []>("input_181_pad_0"), val = tensor<int32, [2]>([0, 0])];
            tensor<int32, [1]> input_181_dilations_0 = const()[name = tensor<string, []>("input_181_dilations_0"), val = tensor<int32, [1]>([1])];
            tensor<int32, []> input_181_groups_0 = const()[name = tensor<string, []>("input_181_groups_0"), val = tensor<int32, []>(1)];
            tensor<fp16, [256, 64, 1]> const_61_to_fp16 = const()[name = tensor<string, []>("const_61_to_fp16"), val = tensor<fp16, [256, 64, 1]>(BLOBFILE(path = tensor<string, []>("@model_path/weights/weight.bin"), offset = tensor<uint64, []>(979520)))];
            tensor<fp16, [256]> const_62_to_fp16 = const()[name = tensor<string, []>("const_62_to_fp16"), val = tensor<fp16, [256]>(BLOBFILE(path = tensor<string, []>("@model_path/weights/weight.bin"), offset = tensor<uint64, []>(1012352)))];
            tensor<fp16, [1, 256, 63]> var_897_cast_fp16 = conv(bias = const_62_to_fp16, dilations = input_181_dilations_0, groups = input_181_groups_0, pad = input_181_pad_0, pad_type = input_181_pad_type_0, strides = input_181_strides_0, weight = const_61_to_fp16, x = input_179_cast_fp16)[name = tensor<string, []>("op_897_cast_fp16")];
            tensor<fp16, [1, 256, 63]> input_183_cast_fp16 = add(x = var_897_cast_fp16, y = input_167_cast_fp16)[name = tensor<string, []>("input_183_cast_fp16")];
            tensor<fp16, [1, 256, 63]> input_185_cast_fp16 = relu(x = input_183_cast_fp16)[name = tensor<string, []>("input_185_cast_fp16")];
            tensor<string, []> input_187_pad_type_0 = const()[name = tensor<string, []>("input_187_pad_type_0"), val = tensor<string, []>("valid")];
            tensor<int32, [1]> input_187_strides_0 = const()[name = tensor<string, []>("input_187_strides_0"), val = tensor<int32, [1]>([1])];
            tensor<int32, [2]> input_187_pad_0 = const()[name = tensor<string, []>("input_187_pad_0"), val = tensor<int32, [2]>([0, 0])];
            tensor<int32, [1]> input_187_dilations_0 = const()[name = tensor<string, []>("input_187_dilations_0"), val = tensor<int32, [1]>([1])];
            tensor<int32, []> input_187_groups_0 = const()[name = tensor<string, []>("input_187_groups_0"), val = tensor<int32, []>(1)];
            tensor<fp16, [64, 256, 1]> const_63_to_fp16 = const()[name = tensor<string, []>("const_63_to_fp16"), val = tensor<fp16, [64, 256, 1]>(BLOBFILE(path = tensor<string, []>("@model_path/weights/weight.bin"), offset = tensor<uint64, []>(1012928)))];
            tensor<fp16, [64]> const_64_to_fp16 = const()[name = tensor<string, []>("const_64_to_fp16"), val = tensor<fp16, [64]>(BLOBFILE(path = tensor<string, []>("@model_path/weights/weight.bin"), offset = tensor<uint64, []>(1045760)))];
            tensor<fp16, [1, 64, 63]> input_189_cast_fp16 = conv(bias = const_64_to_fp16, dilations = input_187_dilations_0, groups = input_187_groups_0, pad = input_187_pad_0, pad_type = input_187_pad_type_0, strides = input_187_strides_0, weight = const_63_to_fp16, x = input_185_cast_fp16)[name = tensor<string, []>("input_189_cast_fp16")];
            tensor<fp16, [1, 64, 63]> input_191_cast_fp16 = relu(x = input_189_cast_fp16)[name = tensor<string, []>("input_191_cast_fp16")];
            tensor<string, []> input_193_pad_type_0 = const()[name = tensor<string, []>("input_193_pad_type_0"), val = tensor<string, []>("custom")];
            tensor<int32, [2]> input_193_pad_0 = const()[name = tensor<string, []>("input_193_pad_0"), val = tensor<int32, [2]>([2, 2])];
            tensor<int32, [1]> input_193_strides_0 = const()[name = tensor<string, []>("input_193_strides_0"), val = tensor<int32, [1]>([1])];
            tensor<int32, [1]> input_193_dilations_0 = const()[name = tensor<string, []>("input_193_dilations_0"), val = tensor<int32, [1]>([1])];
            tensor<int32, []> input_193_groups_0 = const()[name = tensor<string, []>("input_193_groups_0"), val = tensor<int32, []>(1)];
            tensor<fp16, [64, 64, 5]> const_65_to_fp16 = const()[name = tensor<string, []>("const_65_to_fp16"), val = tensor<fp16, [64, 64, 5]>(BLOBFILE(path = tensor<string, []>("@model_path/weights/weight.bin"), offset = tensor<uint64, []>(1045952)))];
            tensor<fp16, [64]> const_66_to_fp16 = const()[name = tensor<string, []>("const_66_to_fp16"), val = tensor<fp16, [64]>(BLOBFILE(path = tensor<string, []>("@model_path/weights/weight.bin"), offset = tensor<uint64, []>(1086976)))];
            tensor<fp16, [1, 64, 63]> input_195_cast_fp16 = conv(bias = const_66_to_fp16, dilations = input_193_dilations_0, groups = input_193_groups_0, pad = input_193_pad_0, pad_type = input_193_pad_type_0, strides = input_193_strides_0, weight = const_65_to_fp16, x = input_191_cast_fp16)[name = tensor<string, []>("input_195_cast_fp16")];
            tensor<fp16, [1, 64, 63]> input_197_cast_fp16 = relu(x = input_195_cast_fp16)[name = tensor<string, []>("input_197_cast_fp16")];
            tensor<string, []> input_199_pad_type_0 = const()[name = tensor<string, []>("input_199_pad_type_0"), val = tensor<string, []>("valid")];
            tensor<int32, [1]> input_199_strides_0 = const()[name = tensor<string, []>("input_199_strides_0"), val = tensor<int32, [1]>([1])];
            tensor<int32, [2]> input_199_pad_0 = const()[name = tensor<string, []>("input_199_pad_0"), val = tensor<int32, [2]>([0, 0])];
            tensor<int32, [1]> input_199_dilations_0 = const()[name = tensor<string, []>("input_199_dilations_0"), val = tensor<int32, [1]>([1])];
            tensor<int32, []> input_199_groups_0 = const()[name = tensor<string, []>("input_199_groups_0"), val = tensor<int32, []>(1)];
            tensor<fp16, [256, 64, 1]> const_67_to_fp16 = const()[name = tensor<string, []>("const_67_to_fp16"), val = tensor<fp16, [256, 64, 1]>(BLOBFILE(path = tensor<string, []>("@model_path/weights/weight.bin"), offset = tensor<uint64, []>(1087168)))];
            tensor<fp16, [256]> const_68_to_fp16 = const()[name = tensor<string, []>("const_68_to_fp16"), val = tensor<fp16, [256]>(BLOBFILE(path = tensor<string, []>("@model_path/weights/weight.bin"), offset = tensor<uint64, []>(1120000)))];
            tensor<fp16, [1, 256, 63]> var_979_cast_fp16 = conv(bias = const_68_to_fp16, dilations = input_199_dilations_0, groups = input_199_groups_0, pad = input_199_pad_0, pad_type = input_199_pad_type_0, strides = input_199_strides_0, weight = const_67_to_fp16, x = input_197_cast_fp16)[name = tensor<string, []>("op_979_cast_fp16")];
            tensor<fp16, [1, 256, 63]> input_201_cast_fp16 = add(x = var_979_cast_fp16, y = input_185_cast_fp16)[name = tensor<string, []>("input_201_cast_fp16")];
            tensor<fp16, [1, 256, 63]> input_203_cast_fp16 = relu(x = input_201_cast_fp16)[name = tensor<string, []>("input_203_cast_fp16")];
            tensor<string, []> input_205_pad_type_0 = const()[name = tensor<string, []>("input_205_pad_type_0"), val = tensor<string, []>("valid")];
            tensor<int32, [1]> input_205_strides_0 = const()[name = tensor<string, []>("input_205_strides_0"), val = tensor<int32, [1]>([1])];
            tensor<int32, [2]> input_205_pad_0 = const()[name = tensor<string, []>("input_205_pad_0"), val = tensor<int32, [2]>([0, 0])];
            tensor<int32, [1]> input_205_dilations_0 = const()[name = tensor<string, []>("input_205_dilations_0"), val = tensor<int32, [1]>([1])];
            tensor<int32, []> input_205_groups_0 = const()[name = tensor<string, []>("input_205_groups_0"), val = tensor<int32, []>(1)];
            tensor<fp16, [64, 256, 1]> const_69_to_fp16 = const()[name = tensor<string, []>("const_69_to_fp16"), val = tensor<fp16, [64, 256, 1]>(BLOBFILE(path = tensor<string, []>("@model_path/weights/weight.bin"), offset = tensor<uint64, []>(1120576)))];
            tensor<fp16, [64]> const_70_to_fp16 = const()[name = tensor<string, []>("const_70_to_fp16"), val = tensor<fp16, [64]>(BLOBFILE(path = tensor<string, []>("@model_path/weights/weight.bin"), offset = tensor<uint64, []>(1153408)))];
            tensor<fp16, [1, 64, 63]> input_207_cast_fp16 = conv(bias = const_70_to_fp16, dilations = input_205_dilations_0, groups = input_205_groups_0, pad = input_205_pad_0, pad_type = input_205_pad_type_0, strides = input_205_strides_0, weight = const_69_to_fp16, x = input_203_cast_fp16)[name = tensor<string, []>("input_207_cast_fp16")];
            tensor<fp16, [1, 64, 63]> input_209_cast_fp16 = relu(x = input_207_cast_fp16)[name = tensor<string, []>("input_209_cast_fp16")];
            tensor<string, []> input_211_pad_type_0 = const()[name = tensor<string, []>("input_211_pad_type_0"), val = tensor<string, []>("custom")];
            tensor<int32, [2]> input_211_pad_0 = const()[name = tensor<string, []>("input_211_pad_0"), val = tensor<int32, [2]>([2, 2])];
            tensor<int32, [1]> input_211_strides_0 = const()[name = tensor<string, []>("input_211_strides_0"), val = tensor<int32, [1]>([1])];
            tensor<int32, [1]> input_211_dilations_0 = const()[name = tensor<string, []>("input_211_dilations_0"), val = tensor<int32, [1]>([1])];
            tensor<int32, []> input_211_groups_0 = const()[name = tensor<string, []>("input_211_groups_0"), val = tensor<int32, []>(1)];
            tensor<fp16, [64, 64, 5]> const_71_to_fp16 = const()[name = tensor<string, []>("const_71_to_fp16"), val = tensor<fp16, [64, 64, 5]>(BLOBFILE(path = tensor<string, []>("@model_path/weights/weight.bin"), offset = tensor<uint64, []>(1153600)))];
            tensor<fp16, [64]> const_72_to_fp16 = const()[name = tensor<string, []>("const_72_to_fp16"), val = tensor<fp16, [64]>(BLOBFILE(path = tensor<string, []>("@model_path/weights/weight.bin"), offset = tensor<uint64, []>(1194624)))];
            tensor<fp16, [1, 64, 63]> input_213_cast_fp16 = conv(bias = const_72_to_fp16, dilations = input_211_dilations_0, groups = input_211_groups_0, pad = input_211_pad_0, pad_type = input_211_pad_type_0, strides = input_211_strides_0, weight = const_71_to_fp16, x = input_209_cast_fp16)[name = tensor<string, []>("input_213_cast_fp16")];
            tensor<fp16, [1, 64, 63]> input_215_cast_fp16 = relu(x = input_213_cast_fp16)[name = tensor<string, []>("input_215_cast_fp16")];
            tensor<string, []> input_217_pad_type_0 = const()[name = tensor<string, []>("input_217_pad_type_0"), val = tensor<string, []>("valid")];
            tensor<int32, [1]> input_217_strides_0 = const()[name = tensor<string, []>("input_217_strides_0"), val = tensor<int32, [1]>([1])];
            tensor<int32, [2]> input_217_pad_0 = const()[name = tensor<string, []>("input_217_pad_0"), val = tensor<int32, [2]>([0, 0])];
            tensor<int32, [1]> input_217_dilations_0 = const()[name = tensor<string, []>("input_217_dilations_0"), val = tensor<int32, [1]>([1])];
            tensor<int32, []> input_217_groups_0 = const()[name = tensor<string, []>("input_217_groups_0"), val = tensor<int32, []>(1)];
            tensor<fp16, [256, 64, 1]> const_73_to_fp16 = const()[name = tensor<string, []>("const_73_to_fp16"), val = tensor<fp16, [256, 64, 1]>(BLOBFILE(path = tensor<string, []>("@model_path/weights/weight.bin"), offset = tensor<uint64, []>(1194816)))];
            tensor<fp16, [256]> const_74_to_fp16 = const()[name = tensor<string, []>("const_74_to_fp16"), val = tensor<fp16, [256]>(BLOBFILE(path = tensor<string, []>("@model_path/weights/weight.bin"), offset = tensor<uint64, []>(1227648)))];
            tensor<fp16, [1, 256, 63]> var_1061_cast_fp16 = conv(bias = const_74_to_fp16, dilations = input_217_dilations_0, groups = input_217_groups_0, pad = input_217_pad_0, pad_type = input_217_pad_type_0, strides = input_217_strides_0, weight = const_73_to_fp16, x = input_215_cast_fp16)[name = tensor<string, []>("op_1061_cast_fp16")];
            tensor<fp16, [1, 256, 63]> input_219_cast_fp16 = add(x = var_1061_cast_fp16, y = input_203_cast_fp16)[name = tensor<string, []>("input_219_cast_fp16")];
            tensor<fp16, [1, 256, 63]> input_221_cast_fp16 = relu(x = input_219_cast_fp16)[name = tensor<string, []>("input_221_cast_fp16")];
            tensor<string, []> input_223_pad_type_0 = const()[name = tensor<string, []>("input_223_pad_type_0"), val = tensor<string, []>("valid")];
            tensor<int32, [1]> input_223_strides_0 = const()[name = tensor<string, []>("input_223_strides_0"), val = tensor<int32, [1]>([1])];
            tensor<int32, [2]> input_223_pad_0 = const()[name = tensor<string, []>("input_223_pad_0"), val = tensor<int32, [2]>([0, 0])];
            tensor<int32, [1]> input_223_dilations_0 = const()[name = tensor<string, []>("input_223_dilations_0"), val = tensor<int32, [1]>([1])];
            tensor<int32, []> input_223_groups_0 = const()[name = tensor<string, []>("input_223_groups_0"), val = tensor<int32, []>(1)];
            tensor<fp16, [64, 256, 1]> const_75_to_fp16 = const()[name = tensor<string, []>("const_75_to_fp16"), val = tensor<fp16, [64, 256, 1]>(BLOBFILE(path = tensor<string, []>("@model_path/weights/weight.bin"), offset = tensor<uint64, []>(1228224)))];
            tensor<fp16, [64]> const_76_to_fp16 = const()[name = tensor<string, []>("const_76_to_fp16"), val = tensor<fp16, [64]>(BLOBFILE(path = tensor<string, []>("@model_path/weights/weight.bin"), offset = tensor<uint64, []>(1261056)))];
            tensor<fp16, [1, 64, 63]> input_225_cast_fp16 = conv(bias = const_76_to_fp16, dilations = input_223_dilations_0, groups = input_223_groups_0, pad = input_223_pad_0, pad_type = input_223_pad_type_0, strides = input_223_strides_0, weight = const_75_to_fp16, x = input_221_cast_fp16)[name = tensor<string, []>("input_225_cast_fp16")];
            tensor<fp16, [1, 64, 63]> input_227_cast_fp16 = relu(x = input_225_cast_fp16)[name = tensor<string, []>("input_227_cast_fp16")];
            tensor<string, []> input_229_pad_type_0 = const()[name = tensor<string, []>("input_229_pad_type_0"), val = tensor<string, []>("custom")];
            tensor<int32, [2]> input_229_pad_0 = const()[name = tensor<string, []>("input_229_pad_0"), val = tensor<int32, [2]>([2, 2])];
            tensor<int32, [1]> input_229_strides_0 = const()[name = tensor<string, []>("input_229_strides_0"), val = tensor<int32, [1]>([1])];
            tensor<int32, [1]> input_229_dilations_0 = const()[name = tensor<string, []>("input_229_dilations_0"), val = tensor<int32, [1]>([1])];
            tensor<int32, []> input_229_groups_0 = const()[name = tensor<string, []>("input_229_groups_0"), val = tensor<int32, []>(1)];
            tensor<fp16, [64, 64, 5]> const_77_to_fp16 = const()[name = tensor<string, []>("const_77_to_fp16"), val = tensor<fp16, [64, 64, 5]>(BLOBFILE(path = tensor<string, []>("@model_path/weights/weight.bin"), offset = tensor<uint64, []>(1261248)))];
            tensor<fp16, [64]> const_78_to_fp16 = const()[name = tensor<string, []>("const_78_to_fp16"), val = tensor<fp16, [64]>(BLOBFILE(path = tensor<string, []>("@model_path/weights/weight.bin"), offset = tensor<uint64, []>(1302272)))];
            tensor<fp16, [1, 64, 63]> input_231_cast_fp16 = conv(bias = const_78_to_fp16, dilations = input_229_dilations_0, groups = input_229_groups_0, pad = input_229_pad_0, pad_type = input_229_pad_type_0, strides = input_229_strides_0, weight = const_77_to_fp16, x = input_227_cast_fp16)[name = tensor<string, []>("input_231_cast_fp16")];
            tensor<fp16, [1, 64, 63]> input_233_cast_fp16 = relu(x = input_231_cast_fp16)[name = tensor<string, []>("input_233_cast_fp16")];
            tensor<string, []> input_235_pad_type_0 = const()[name = tensor<string, []>("input_235_pad_type_0"), val = tensor<string, []>("valid")];
            tensor<int32, [1]> input_235_strides_0 = const()[name = tensor<string, []>("input_235_strides_0"), val = tensor<int32, [1]>([1])];
            tensor<int32, [2]> input_235_pad_0 = const()[name = tensor<string, []>("input_235_pad_0"), val = tensor<int32, [2]>([0, 0])];
            tensor<int32, [1]> input_235_dilations_0 = const()[name = tensor<string, []>("input_235_dilations_0"), val = tensor<int32, [1]>([1])];
            tensor<int32, []> input_235_groups_0 = const()[name = tensor<string, []>("input_235_groups_0"), val = tensor<int32, []>(1)];
            tensor<fp16, [256, 64, 1]> const_79_to_fp16 = const()[name = tensor<string, []>("const_79_to_fp16"), val = tensor<fp16, [256, 64, 1]>(BLOBFILE(path = tensor<string, []>("@model_path/weights/weight.bin"), offset = tensor<uint64, []>(1302464)))];
            tensor<fp16, [256]> const_80_to_fp16 = const()[name = tensor<string, []>("const_80_to_fp16"), val = tensor<fp16, [256]>(BLOBFILE(path = tensor<string, []>("@model_path/weights/weight.bin"), offset = tensor<uint64, []>(1335296)))];
            tensor<fp16, [1, 256, 63]> var_1143_cast_fp16 = conv(bias = const_80_to_fp16, dilations = input_235_dilations_0, groups = input_235_groups_0, pad = input_235_pad_0, pad_type = input_235_pad_type_0, strides = input_235_strides_0, weight = const_79_to_fp16, x = input_233_cast_fp16)[name = tensor<string, []>("op_1143_cast_fp16")];
            tensor<fp16, [1, 256, 63]> input_237_cast_fp16 = add(x = var_1143_cast_fp16, y = input_221_cast_fp16)[name = tensor<string, []>("input_237_cast_fp16")];
            tensor<fp16, [1, 256, 63]> input_239_cast_fp16 = relu(x = input_237_cast_fp16)[name = tensor<string, []>("input_239_cast_fp16")];
            tensor<string, []> input_241_pad_type_0 = const()[name = tensor<string, []>("input_241_pad_type_0"), val = tensor<string, []>("valid")];
            tensor<int32, [1]> input_241_strides_0 = const()[name = tensor<string, []>("input_241_strides_0"), val = tensor<int32, [1]>([1])];
            tensor<int32, [2]> input_241_pad_0 = const()[name = tensor<string, []>("input_241_pad_0"), val = tensor<int32, [2]>([0, 0])];
            tensor<int32, [1]> input_241_dilations_0 = const()[name = tensor<string, []>("input_241_dilations_0"), val = tensor<int32, [1]>([1])];
            tensor<int32, []> input_241_groups_0 = const()[name = tensor<string, []>("input_241_groups_0"), val = tensor<int32, []>(1)];
            tensor<fp16, [64, 256, 1]> const_81_to_fp16 = const()[name = tensor<string, []>("const_81_to_fp16"), val = tensor<fp16, [64, 256, 1]>(BLOBFILE(path = tensor<string, []>("@model_path/weights/weight.bin"), offset = tensor<uint64, []>(1335872)))];
            tensor<fp16, [64]> const_82_to_fp16 = const()[name = tensor<string, []>("const_82_to_fp16"), val = tensor<fp16, [64]>(BLOBFILE(path = tensor<string, []>("@model_path/weights/weight.bin"), offset = tensor<uint64, []>(1368704)))];
            tensor<fp16, [1, 64, 63]> input_243_cast_fp16 = conv(bias = const_82_to_fp16, dilations = input_241_dilations_0, groups = input_241_groups_0, pad = input_241_pad_0, pad_type = input_241_pad_type_0, strides = input_241_strides_0, weight = const_81_to_fp16, x = input_239_cast_fp16)[name = tensor<string, []>("input_243_cast_fp16")];
            tensor<fp16, [1, 64, 63]> input_245_cast_fp16 = relu(x = input_243_cast_fp16)[name = tensor<string, []>("input_245_cast_fp16")];
            tensor<string, []> input_247_pad_type_0 = const()[name = tensor<string, []>("input_247_pad_type_0"), val = tensor<string, []>("custom")];
            tensor<int32, [2]> input_247_pad_0 = const()[name = tensor<string, []>("input_247_pad_0"), val = tensor<int32, [2]>([2, 2])];
            tensor<int32, [1]> input_247_strides_0 = const()[name = tensor<string, []>("input_247_strides_0"), val = tensor<int32, [1]>([1])];
            tensor<int32, [1]> input_247_dilations_0 = const()[name = tensor<string, []>("input_247_dilations_0"), val = tensor<int32, [1]>([1])];
            tensor<int32, []> input_247_groups_0 = const()[name = tensor<string, []>("input_247_groups_0"), val = tensor<int32, []>(1)];
            tensor<fp16, [64, 64, 5]> const_83_to_fp16 = const()[name = tensor<string, []>("const_83_to_fp16"), val = tensor<fp16, [64, 64, 5]>(BLOBFILE(path = tensor<string, []>("@model_path/weights/weight.bin"), offset = tensor<uint64, []>(1368896)))];
            tensor<fp16, [64]> const_84_to_fp16 = const()[name = tensor<string, []>("const_84_to_fp16"), val = tensor<fp16, [64]>(BLOBFILE(path = tensor<string, []>("@model_path/weights/weight.bin"), offset = tensor<uint64, []>(1409920)))];
            tensor<fp16, [1, 64, 63]> input_249_cast_fp16 = conv(bias = const_84_to_fp16, dilations = input_247_dilations_0, groups = input_247_groups_0, pad = input_247_pad_0, pad_type = input_247_pad_type_0, strides = input_247_strides_0, weight = const_83_to_fp16, x = input_245_cast_fp16)[name = tensor<string, []>("input_249_cast_fp16")];
            tensor<fp16, [1, 64, 63]> input_251_cast_fp16 = relu(x = input_249_cast_fp16)[name = tensor<string, []>("input_251_cast_fp16")];
            tensor<string, []> input_253_pad_type_0 = const()[name = tensor<string, []>("input_253_pad_type_0"), val = tensor<string, []>("valid")];
            tensor<int32, [1]> input_253_strides_0 = const()[name = tensor<string, []>("input_253_strides_0"), val = tensor<int32, [1]>([1])];
            tensor<int32, [2]> input_253_pad_0 = const()[name = tensor<string, []>("input_253_pad_0"), val = tensor<int32, [2]>([0, 0])];
            tensor<int32, [1]> input_253_dilations_0 = const()[name = tensor<string, []>("input_253_dilations_0"), val = tensor<int32, [1]>([1])];
            tensor<int32, []> input_253_groups_0 = const()[name = tensor<string, []>("input_253_groups_0"), val = tensor<int32, []>(1)];
            tensor<fp16, [256, 64, 1]> const_85_to_fp16 = const()[name = tensor<string, []>("const_85_to_fp16"), val = tensor<fp16, [256, 64, 1]>(BLOBFILE(path = tensor<string, []>("@model_path/weights/weight.bin"), offset = tensor<uint64, []>(1410112)))];
            tensor<fp16, [256]> const_86_to_fp16 = const()[name = tensor<string, []>("const_86_to_fp16"), val = tensor<fp16, [256]>(BLOBFILE(path = tensor<string, []>("@model_path/weights/weight.bin"), offset = tensor<uint64, []>(1442944)))];
            tensor<fp16, [1, 256, 63]> var_1225_cast_fp16 = conv(bias = const_86_to_fp16, dilations = input_253_dilations_0, groups = input_253_groups_0, pad = input_253_pad_0, pad_type = input_253_pad_type_0, strides = input_253_strides_0, weight = const_85_to_fp16, x = input_251_cast_fp16)[name = tensor<string, []>("op_1225_cast_fp16")];
            tensor<fp16, [1, 256, 63]> input_255_cast_fp16 = add(x = var_1225_cast_fp16, y = input_239_cast_fp16)[name = tensor<string, []>("input_255_cast_fp16")];
            tensor<fp16, [1, 256, 63]> input_257_cast_fp16 = relu(x = input_255_cast_fp16)[name = tensor<string, []>("input_257_cast_fp16")];
            tensor<string, []> input_259_pad_type_0 = const()[name = tensor<string, []>("input_259_pad_type_0"), val = tensor<string, []>("valid")];
            tensor<int32, [1]> input_259_strides_0 = const()[name = tensor<string, []>("input_259_strides_0"), val = tensor<int32, [1]>([1])];
            tensor<int32, [2]> input_259_pad_0 = const()[name = tensor<string, []>("input_259_pad_0"), val = tensor<int32, [2]>([0, 0])];
            tensor<int32, [1]> input_259_dilations_0 = const()[name = tensor<string, []>("input_259_dilations_0"), val = tensor<int32, [1]>([1])];
            tensor<int32, []> input_259_groups_0 = const()[name = tensor<string, []>("input_259_groups_0"), val = tensor<int32, []>(1)];
            tensor<fp16, [64, 256, 1]> const_87_to_fp16 = const()[name = tensor<string, []>("const_87_to_fp16"), val = tensor<fp16, [64, 256, 1]>(BLOBFILE(path = tensor<string, []>("@model_path/weights/weight.bin"), offset = tensor<uint64, []>(1443520)))];
            tensor<fp16, [64]> const_88_to_fp16 = const()[name = tensor<string, []>("const_88_to_fp16"), val = tensor<fp16, [64]>(BLOBFILE(path = tensor<string, []>("@model_path/weights/weight.bin"), offset = tensor<uint64, []>(1476352)))];
            tensor<fp16, [1, 64, 63]> input_261_cast_fp16 = conv(bias = const_88_to_fp16, dilations = input_259_dilations_0, groups = input_259_groups_0, pad = input_259_pad_0, pad_type = input_259_pad_type_0, strides = input_259_strides_0, weight = const_87_to_fp16, x = input_257_cast_fp16)[name = tensor<string, []>("input_261_cast_fp16")];
            tensor<fp16, [1, 64, 63]> input_263_cast_fp16 = relu(x = input_261_cast_fp16)[name = tensor<string, []>("input_263_cast_fp16")];
            tensor<string, []> input_265_pad_type_0 = const()[name = tensor<string, []>("input_265_pad_type_0"), val = tensor<string, []>("custom")];
            tensor<int32, [2]> input_265_pad_0 = const()[name = tensor<string, []>("input_265_pad_0"), val = tensor<int32, [2]>([2, 2])];
            tensor<int32, [1]> input_265_strides_0 = const()[name = tensor<string, []>("input_265_strides_0"), val = tensor<int32, [1]>([1])];
            tensor<int32, [1]> input_265_dilations_0 = const()[name = tensor<string, []>("input_265_dilations_0"), val = tensor<int32, [1]>([1])];
            tensor<int32, []> input_265_groups_0 = const()[name = tensor<string, []>("input_265_groups_0"), val = tensor<int32, []>(1)];
            tensor<fp16, [64, 64, 5]> const_89_to_fp16 = const()[name = tensor<string, []>("const_89_to_fp16"), val = tensor<fp16, [64, 64, 5]>(BLOBFILE(path = tensor<string, []>("@model_path/weights/weight.bin"), offset = tensor<uint64, []>(1476544)))];
            tensor<fp16, [64]> const_90_to_fp16 = const()[name = tensor<string, []>("const_90_to_fp16"), val = tensor<fp16, [64]>(BLOBFILE(path = tensor<string, []>("@model_path/weights/weight.bin"), offset = tensor<uint64, []>(1517568)))];
            tensor<fp16, [1, 64, 63]> input_267_cast_fp16 = conv(bias = const_90_to_fp16, dilations = input_265_dilations_0, groups = input_265_groups_0, pad = input_265_pad_0, pad_type = input_265_pad_type_0, strides = input_265_strides_0, weight = const_89_to_fp16, x = input_263_cast_fp16)[name = tensor<string, []>("input_267_cast_fp16")];
            tensor<fp16, [1, 64, 63]> input_269_cast_fp16 = relu(x = input_267_cast_fp16)[name = tensor<string, []>("input_269_cast_fp16")];
            tensor<string, []> input_271_pad_type_0 = const()[name = tensor<string, []>("input_271_pad_type_0"), val = tensor<string, []>("valid")];
            tensor<int32, [1]> input_271_strides_0 = const()[name = tensor<string, []>("input_271_strides_0"), val = tensor<int32, [1]>([1])];
            tensor<int32, [2]> input_271_pad_0 = const()[name = tensor<string, []>("input_271_pad_0"), val = tensor<int32, [2]>([0, 0])];
            tensor<int32, [1]> input_271_dilations_0 = const()[name = tensor<string, []>("input_271_dilations_0"), val = tensor<int32, [1]>([1])];
            tensor<int32, []> input_271_groups_0 = const()[name = tensor<string, []>("input_271_groups_0"), val = tensor<int32, []>(1)];
            tensor<fp16, [256, 64, 1]> const_91_to_fp16 = const()[name = tensor<string, []>("const_91_to_fp16"), val = tensor<fp16, [256, 64, 1]>(BLOBFILE(path = tensor<string, []>("@model_path/weights/weight.bin"), offset = tensor<uint64, []>(1517760)))];
            tensor<fp16, [256]> const_92_to_fp16 = const()[name = tensor<string, []>("const_92_to_fp16"), val = tensor<fp16, [256]>(BLOBFILE(path = tensor<string, []>("@model_path/weights/weight.bin"), offset = tensor<uint64, []>(1550592)))];
            tensor<fp16, [1, 256, 63]> var_1307_cast_fp16 = conv(bias = const_92_to_fp16, dilations = input_271_dilations_0, groups = input_271_groups_0, pad = input_271_pad_0, pad_type = input_271_pad_type_0, strides = input_271_strides_0, weight = const_91_to_fp16, x = input_269_cast_fp16)[name = tensor<string, []>("op_1307_cast_fp16")];
            tensor<fp16, [1, 256, 63]> input_273_cast_fp16 = add(x = var_1307_cast_fp16, y = input_257_cast_fp16)[name = tensor<string, []>("input_273_cast_fp16")];
            tensor<fp16, [1, 256, 63]> input_275_cast_fp16 = relu(x = input_273_cast_fp16)[name = tensor<string, []>("input_275_cast_fp16")];
            tensor<string, []> input_277_pad_type_0 = const()[name = tensor<string, []>("input_277_pad_type_0"), val = tensor<string, []>("valid")];
            tensor<int32, [1]> input_277_strides_0 = const()[name = tensor<string, []>("input_277_strides_0"), val = tensor<int32, [1]>([1])];
            tensor<int32, [2]> input_277_pad_0 = const()[name = tensor<string, []>("input_277_pad_0"), val = tensor<int32, [2]>([0, 0])];
            tensor<int32, [1]> input_277_dilations_0 = const()[name = tensor<string, []>("input_277_dilations_0"), val = tensor<int32, [1]>([1])];
            tensor<int32, []> input_277_groups_0 = const()[name = tensor<string, []>("input_277_groups_0"), val = tensor<int32, []>(1)];
            tensor<fp16, [64, 256, 1]> const_93_to_fp16 = const()[name = tensor<string, []>("const_93_to_fp16"), val = tensor<fp16, [64, 256, 1]>(BLOBFILE(path = tensor<string, []>("@model_path/weights/weight.bin"), offset = tensor<uint64, []>(1551168)))];
            tensor<fp16, [64]> const_94_to_fp16 = const()[name = tensor<string, []>("const_94_to_fp16"), val = tensor<fp16, [64]>(BLOBFILE(path = tensor<string, []>("@model_path/weights/weight.bin"), offset = tensor<uint64, []>(1584000)))];
            tensor<fp16, [1, 64, 63]> input_279_cast_fp16 = conv(bias = const_94_to_fp16, dilations = input_277_dilations_0, groups = input_277_groups_0, pad = input_277_pad_0, pad_type = input_277_pad_type_0, strides = input_277_strides_0, weight = const_93_to_fp16, x = input_275_cast_fp16)[name = tensor<string, []>("input_279_cast_fp16")];
            tensor<fp16, [1, 64, 63]> input_281_cast_fp16 = relu(x = input_279_cast_fp16)[name = tensor<string, []>("input_281_cast_fp16")];
            tensor<string, []> input_283_pad_type_0 = const()[name = tensor<string, []>("input_283_pad_type_0"), val = tensor<string, []>("custom")];
            tensor<int32, [2]> input_283_pad_0 = const()[name = tensor<string, []>("input_283_pad_0"), val = tensor<int32, [2]>([2, 2])];
            tensor<int32, [1]> input_283_strides_0 = const()[name = tensor<string, []>("input_283_strides_0"), val = tensor<int32, [1]>([1])];
            tensor<int32, [1]> input_283_dilations_0 = const()[name = tensor<string, []>("input_283_dilations_0"), val = tensor<int32, [1]>([1])];
            tensor<int32, []> input_283_groups_0 = const()[name = tensor<string, []>("input_283_groups_0"), val = tensor<int32, []>(1)];
            tensor<fp16, [64, 64, 5]> const_95_to_fp16 = const()[name = tensor<string, []>("const_95_to_fp16"), val = tensor<fp16, [64, 64, 5]>(BLOBFILE(path = tensor<string, []>("@model_path/weights/weight.bin"), offset = tensor<uint64, []>(1584192)))];
            tensor<fp16, [64]> const_96_to_fp16 = const()[name = tensor<string, []>("const_96_to_fp16"), val = tensor<fp16, [64]>(BLOBFILE(path = tensor<string, []>("@model_path/weights/weight.bin"), offset = tensor<uint64, []>(1625216)))];
            tensor<fp16, [1, 64, 63]> input_285_cast_fp16 = conv(bias = const_96_to_fp16, dilations = input_283_dilations_0, groups = input_283_groups_0, pad = input_283_pad_0, pad_type = input_283_pad_type_0, strides = input_283_strides_0, weight = const_95_to_fp16, x = input_281_cast_fp16)[name = tensor<string, []>("input_285_cast_fp16")];
            tensor<fp16, [1, 64, 63]> input_287_cast_fp16 = relu(x = input_285_cast_fp16)[name = tensor<string, []>("input_287_cast_fp16")];
            tensor<string, []> input_289_pad_type_0 = const()[name = tensor<string, []>("input_289_pad_type_0"), val = tensor<string, []>("valid")];
            tensor<int32, [1]> input_289_strides_0 = const()[name = tensor<string, []>("input_289_strides_0"), val = tensor<int32, [1]>([1])];
            tensor<int32, [2]> input_289_pad_0 = const()[name = tensor<string, []>("input_289_pad_0"), val = tensor<int32, [2]>([0, 0])];
            tensor<int32, [1]> input_289_dilations_0 = const()[name = tensor<string, []>("input_289_dilations_0"), val = tensor<int32, [1]>([1])];
            tensor<int32, []> input_289_groups_0 = const()[name = tensor<string, []>("input_289_groups_0"), val = tensor<int32, []>(1)];
            tensor<fp16, [256, 64, 1]> const_97_to_fp16 = const()[name = tensor<string, []>("const_97_to_fp16"), val = tensor<fp16, [256, 64, 1]>(BLOBFILE(path = tensor<string, []>("@model_path/weights/weight.bin"), offset = tensor<uint64, []>(1625408)))];
            tensor<fp16, [256]> const_98_to_fp16 = const()[name = tensor<string, []>("const_98_to_fp16"), val = tensor<fp16, [256]>(BLOBFILE(path = tensor<string, []>("@model_path/weights/weight.bin"), offset = tensor<uint64, []>(1658240)))];
            tensor<fp16, [1, 256, 63]> var_1389_cast_fp16 = conv(bias = const_98_to_fp16, dilations = input_289_dilations_0, groups = input_289_groups_0, pad = input_289_pad_0, pad_type = input_289_pad_type_0, strides = input_289_strides_0, weight = const_97_to_fp16, x = input_287_cast_fp16)[name = tensor<string, []>("op_1389_cast_fp16")];
            tensor<fp16, [1, 256, 63]> input_291_cast_fp16 = add(x = var_1389_cast_fp16, y = input_275_cast_fp16)[name = tensor<string, []>("input_291_cast_fp16")];
            tensor<fp16, [1, 256, 63]> input_293_cast_fp16 = relu(x = input_291_cast_fp16)[name = tensor<string, []>("input_293_cast_fp16")];
            tensor<string, []> input_295_pad_type_0 = const()[name = tensor<string, []>("input_295_pad_type_0"), val = tensor<string, []>("valid")];
            tensor<int32, [1]> input_295_strides_0 = const()[name = tensor<string, []>("input_295_strides_0"), val = tensor<int32, [1]>([1])];
            tensor<int32, [2]> input_295_pad_0 = const()[name = tensor<string, []>("input_295_pad_0"), val = tensor<int32, [2]>([0, 0])];
            tensor<int32, [1]> input_295_dilations_0 = const()[name = tensor<string, []>("input_295_dilations_0"), val = tensor<int32, [1]>([1])];
            tensor<int32, []> input_295_groups_0 = const()[name = tensor<string, []>("input_295_groups_0"), val = tensor<int32, []>(1)];
            tensor<fp16, [64, 256, 1]> const_99_to_fp16 = const()[name = tensor<string, []>("const_99_to_fp16"), val = tensor<fp16, [64, 256, 1]>(BLOBFILE(path = tensor<string, []>("@model_path/weights/weight.bin"), offset = tensor<uint64, []>(1658816)))];
            tensor<fp16, [64]> const_100_to_fp16 = const()[name = tensor<string, []>("const_100_to_fp16"), val = tensor<fp16, [64]>(BLOBFILE(path = tensor<string, []>("@model_path/weights/weight.bin"), offset = tensor<uint64, []>(1691648)))];
            tensor<fp16, [1, 64, 63]> input_297_cast_fp16 = conv(bias = const_100_to_fp16, dilations = input_295_dilations_0, groups = input_295_groups_0, pad = input_295_pad_0, pad_type = input_295_pad_type_0, strides = input_295_strides_0, weight = const_99_to_fp16, x = input_293_cast_fp16)[name = tensor<string, []>("input_297_cast_fp16")];
            tensor<fp16, [1, 64, 63]> input_299_cast_fp16 = relu(x = input_297_cast_fp16)[name = tensor<string, []>("input_299_cast_fp16")];
            tensor<string, []> input_301_pad_type_0 = const()[name = tensor<string, []>("input_301_pad_type_0"), val = tensor<string, []>("custom")];
            tensor<int32, [2]> input_301_pad_0 = const()[name = tensor<string, []>("input_301_pad_0"), val = tensor<int32, [2]>([2, 2])];
            tensor<int32, [1]> input_301_strides_0 = const()[name = tensor<string, []>("input_301_strides_0"), val = tensor<int32, [1]>([1])];
            tensor<int32, [1]> input_301_dilations_0 = const()[name = tensor<string, []>("input_301_dilations_0"), val = tensor<int32, [1]>([1])];
            tensor<int32, []> input_301_groups_0 = const()[name = tensor<string, []>("input_301_groups_0"), val = tensor<int32, []>(1)];
            tensor<fp16, [64, 64, 5]> const_101_to_fp16 = const()[name = tensor<string, []>("const_101_to_fp16"), val = tensor<fp16, [64, 64, 5]>(BLOBFILE(path = tensor<string, []>("@model_path/weights/weight.bin"), offset = tensor<uint64, []>(1691840)))];
            tensor<fp16, [64]> const_102_to_fp16 = const()[name = tensor<string, []>("const_102_to_fp16"), val = tensor<fp16, [64]>(BLOBFILE(path = tensor<string, []>("@model_path/weights/weight.bin"), offset = tensor<uint64, []>(1732864)))];
            tensor<fp16, [1, 64, 63]> input_303_cast_fp16 = conv(bias = const_102_to_fp16, dilations = input_301_dilations_0, groups = input_301_groups_0, pad = input_301_pad_0, pad_type = input_301_pad_type_0, strides = input_301_strides_0, weight = const_101_to_fp16, x = input_299_cast_fp16)[name = tensor<string, []>("input_303_cast_fp16")];
            tensor<fp16, [1, 64, 63]> input_305_cast_fp16 = relu(x = input_303_cast_fp16)[name = tensor<string, []>("input_305_cast_fp16")];
            tensor<string, []> input_307_pad_type_0 = const()[name = tensor<string, []>("input_307_pad_type_0"), val = tensor<string, []>("valid")];
            tensor<int32, [1]> input_307_strides_0 = const()[name = tensor<string, []>("input_307_strides_0"), val = tensor<int32, [1]>([1])];
            tensor<int32, [2]> input_307_pad_0 = const()[name = tensor<string, []>("input_307_pad_0"), val = tensor<int32, [2]>([0, 0])];
            tensor<int32, [1]> input_307_dilations_0 = const()[name = tensor<string, []>("input_307_dilations_0"), val = tensor<int32, [1]>([1])];
            tensor<int32, []> input_307_groups_0 = const()[name = tensor<string, []>("input_307_groups_0"), val = tensor<int32, []>(1)];
            tensor<fp16, [256, 64, 1]> const_103_to_fp16 = const()[name = tensor<string, []>("const_103_to_fp16"), val = tensor<fp16, [256, 64, 1]>(BLOBFILE(path = tensor<string, []>("@model_path/weights/weight.bin"), offset = tensor<uint64, []>(1733056)))];
            tensor<fp16, [256]> const_104_to_fp16 = const()[name = tensor<string, []>("const_104_to_fp16"), val = tensor<fp16, [256]>(BLOBFILE(path = tensor<string, []>("@model_path/weights/weight.bin"), offset = tensor<uint64, []>(1765888)))];
            tensor<fp16, [1, 256, 63]> var_1471_cast_fp16 = conv(bias = const_104_to_fp16, dilations = input_307_dilations_0, groups = input_307_groups_0, pad = input_307_pad_0, pad_type = input_307_pad_type_0, strides = input_307_strides_0, weight = const_103_to_fp16, x = input_305_cast_fp16)[name = tensor<string, []>("op_1471_cast_fp16")];
            tensor<fp16, [1, 256, 63]> input_309_cast_fp16 = add(x = var_1471_cast_fp16, y = input_293_cast_fp16)[name = tensor<string, []>("input_309_cast_fp16")];
            tensor<fp16, [1, 256, 63]> input_311_cast_fp16 = relu(x = input_309_cast_fp16)[name = tensor<string, []>("input_311_cast_fp16")];
            tensor<string, []> input_313_pad_type_0 = const()[name = tensor<string, []>("input_313_pad_type_0"), val = tensor<string, []>("valid")];
            tensor<int32, [1]> input_313_strides_0 = const()[name = tensor<string, []>("input_313_strides_0"), val = tensor<int32, [1]>([1])];
            tensor<int32, [2]> input_313_pad_0 = const()[name = tensor<string, []>("input_313_pad_0"), val = tensor<int32, [2]>([0, 0])];
            tensor<int32, [1]> input_313_dilations_0 = const()[name = tensor<string, []>("input_313_dilations_0"), val = tensor<int32, [1]>([1])];
            tensor<int32, []> input_313_groups_0 = const()[name = tensor<string, []>("input_313_groups_0"), val = tensor<int32, []>(1)];
            tensor<fp16, [64, 256, 1]> const_105_to_fp16 = const()[name = tensor<string, []>("const_105_to_fp16"), val = tensor<fp16, [64, 256, 1]>(BLOBFILE(path = tensor<string, []>("@model_path/weights/weight.bin"), offset = tensor<uint64, []>(1766464)))];
            tensor<fp16, [64]> const_106_to_fp16 = const()[name = tensor<string, []>("const_106_to_fp16"), val = tensor<fp16, [64]>(BLOBFILE(path = tensor<string, []>("@model_path/weights/weight.bin"), offset = tensor<uint64, []>(1799296)))];
            tensor<fp16, [1, 64, 63]> input_315_cast_fp16 = conv(bias = const_106_to_fp16, dilations = input_313_dilations_0, groups = input_313_groups_0, pad = input_313_pad_0, pad_type = input_313_pad_type_0, strides = input_313_strides_0, weight = const_105_to_fp16, x = input_311_cast_fp16)[name = tensor<string, []>("input_315_cast_fp16")];
            tensor<fp16, [1, 64, 63]> input_317_cast_fp16 = relu(x = input_315_cast_fp16)[name = tensor<string, []>("input_317_cast_fp16")];
            tensor<string, []> input_319_pad_type_0 = const()[name = tensor<string, []>("input_319_pad_type_0"), val = tensor<string, []>("custom")];
            tensor<int32, [2]> input_319_pad_0 = const()[name = tensor<string, []>("input_319_pad_0"), val = tensor<int32, [2]>([2, 2])];
            tensor<int32, [1]> input_319_strides_0 = const()[name = tensor<string, []>("input_319_strides_0"), val = tensor<int32, [1]>([1])];
            tensor<int32, [1]> input_319_dilations_0 = const()[name = tensor<string, []>("input_319_dilations_0"), val = tensor<int32, [1]>([1])];
            tensor<int32, []> input_319_groups_0 = const()[name = tensor<string, []>("input_319_groups_0"), val = tensor<int32, []>(1)];
            tensor<fp16, [64, 64, 5]> const_107_to_fp16 = const()[name = tensor<string, []>("const_107_to_fp16"), val = tensor<fp16, [64, 64, 5]>(BLOBFILE(path = tensor<string, []>("@model_path/weights/weight.bin"), offset = tensor<uint64, []>(1799488)))];
            tensor<fp16, [64]> const_108_to_fp16 = const()[name = tensor<string, []>("const_108_to_fp16"), val = tensor<fp16, [64]>(BLOBFILE(path = tensor<string, []>("@model_path/weights/weight.bin"), offset = tensor<uint64, []>(1840512)))];
            tensor<fp16, [1, 64, 63]> input_321_cast_fp16 = conv(bias = const_108_to_fp16, dilations = input_319_dilations_0, groups = input_319_groups_0, pad = input_319_pad_0, pad_type = input_319_pad_type_0, strides = input_319_strides_0, weight = const_107_to_fp16, x = input_317_cast_fp16)[name = tensor<string, []>("input_321_cast_fp16")];
            tensor<fp16, [1, 64, 63]> input_323_cast_fp16 = relu(x = input_321_cast_fp16)[name = tensor<string, []>("input_323_cast_fp16")];
            tensor<string, []> input_325_pad_type_0 = const()[name = tensor<string, []>("input_325_pad_type_0"), val = tensor<string, []>("valid")];
            tensor<int32, [1]> input_325_strides_0 = const()[name = tensor<string, []>("input_325_strides_0"), val = tensor<int32, [1]>([1])];
            tensor<int32, [2]> input_325_pad_0 = const()[name = tensor<string, []>("input_325_pad_0"), val = tensor<int32, [2]>([0, 0])];
            tensor<int32, [1]> input_325_dilations_0 = const()[name = tensor<string, []>("input_325_dilations_0"), val = tensor<int32, [1]>([1])];
            tensor<int32, []> input_325_groups_0 = const()[name = tensor<string, []>("input_325_groups_0"), val = tensor<int32, []>(1)];
            tensor<fp16, [256, 64, 1]> const_109_to_fp16 = const()[name = tensor<string, []>("const_109_to_fp16"), val = tensor<fp16, [256, 64, 1]>(BLOBFILE(path = tensor<string, []>("@model_path/weights/weight.bin"), offset = tensor<uint64, []>(1840704)))];
            tensor<fp16, [256]> const_110_to_fp16 = const()[name = tensor<string, []>("const_110_to_fp16"), val = tensor<fp16, [256]>(BLOBFILE(path = tensor<string, []>("@model_path/weights/weight.bin"), offset = tensor<uint64, []>(1873536)))];
            tensor<fp16, [1, 256, 63]> var_1553_cast_fp16 = conv(bias = const_110_to_fp16, dilations = input_325_dilations_0, groups = input_325_groups_0, pad = input_325_pad_0, pad_type = input_325_pad_type_0, strides = input_325_strides_0, weight = const_109_to_fp16, x = input_323_cast_fp16)[name = tensor<string, []>("op_1553_cast_fp16")];
            tensor<fp16, [1, 256, 63]> input_327_cast_fp16 = add(x = var_1553_cast_fp16, y = input_311_cast_fp16)[name = tensor<string, []>("input_327_cast_fp16")];
            tensor<fp16, [1, 256, 63]> input_329_cast_fp16 = relu(x = input_327_cast_fp16)[name = tensor<string, []>("input_329_cast_fp16")];
            tensor<string, []> input_331_pad_type_0 = const()[name = tensor<string, []>("input_331_pad_type_0"), val = tensor<string, []>("valid")];
            tensor<int32, [1]> input_331_strides_0 = const()[name = tensor<string, []>("input_331_strides_0"), val = tensor<int32, [1]>([1])];
            tensor<int32, [2]> input_331_pad_0 = const()[name = tensor<string, []>("input_331_pad_0"), val = tensor<int32, [2]>([0, 0])];
            tensor<int32, [1]> input_331_dilations_0 = const()[name = tensor<string, []>("input_331_dilations_0"), val = tensor<int32, [1]>([1])];
            tensor<int32, []> input_331_groups_0 = const()[name = tensor<string, []>("input_331_groups_0"), val = tensor<int32, []>(1)];
            tensor<fp16, [64, 256, 1]> const_111_to_fp16 = const()[name = tensor<string, []>("const_111_to_fp16"), val = tensor<fp16, [64, 256, 1]>(BLOBFILE(path = tensor<string, []>("@model_path/weights/weight.bin"), offset = tensor<uint64, []>(1874112)))];
            tensor<fp16, [64]> const_112_to_fp16 = const()[name = tensor<string, []>("const_112_to_fp16"), val = tensor<fp16, [64]>(BLOBFILE(path = tensor<string, []>("@model_path/weights/weight.bin"), offset = tensor<uint64, []>(1906944)))];
            tensor<fp16, [1, 64, 63]> input_333_cast_fp16 = conv(bias = const_112_to_fp16, dilations = input_331_dilations_0, groups = input_331_groups_0, pad = input_331_pad_0, pad_type = input_331_pad_type_0, strides = input_331_strides_0, weight = const_111_to_fp16, x = input_329_cast_fp16)[name = tensor<string, []>("input_333_cast_fp16")];
            tensor<fp16, [1, 64, 63]> input_335_cast_fp16 = relu(x = input_333_cast_fp16)[name = tensor<string, []>("input_335_cast_fp16")];
            tensor<string, []> input_337_pad_type_0 = const()[name = tensor<string, []>("input_337_pad_type_0"), val = tensor<string, []>("custom")];
            tensor<int32, [2]> input_337_pad_0 = const()[name = tensor<string, []>("input_337_pad_0"), val = tensor<int32, [2]>([2, 2])];
            tensor<int32, [1]> input_337_strides_0 = const()[name = tensor<string, []>("input_337_strides_0"), val = tensor<int32, [1]>([1])];
            tensor<int32, [1]> input_337_dilations_0 = const()[name = tensor<string, []>("input_337_dilations_0"), val = tensor<int32, [1]>([1])];
            tensor<int32, []> input_337_groups_0 = const()[name = tensor<string, []>("input_337_groups_0"), val = tensor<int32, []>(1)];
            tensor<fp16, [64, 64, 5]> const_113_to_fp16 = const()[name = tensor<string, []>("const_113_to_fp16"), val = tensor<fp16, [64, 64, 5]>(BLOBFILE(path = tensor<string, []>("@model_path/weights/weight.bin"), offset = tensor<uint64, []>(1907136)))];
            tensor<fp16, [64]> const_114_to_fp16 = const()[name = tensor<string, []>("const_114_to_fp16"), val = tensor<fp16, [64]>(BLOBFILE(path = tensor<string, []>("@model_path/weights/weight.bin"), offset = tensor<uint64, []>(1948160)))];
            tensor<fp16, [1, 64, 63]> input_339_cast_fp16 = conv(bias = const_114_to_fp16, dilations = input_337_dilations_0, groups = input_337_groups_0, pad = input_337_pad_0, pad_type = input_337_pad_type_0, strides = input_337_strides_0, weight = const_113_to_fp16, x = input_335_cast_fp16)[name = tensor<string, []>("input_339_cast_fp16")];
            tensor<fp16, [1, 64, 63]> input_341_cast_fp16 = relu(x = input_339_cast_fp16)[name = tensor<string, []>("input_341_cast_fp16")];
            tensor<string, []> input_343_pad_type_0 = const()[name = tensor<string, []>("input_343_pad_type_0"), val = tensor<string, []>("valid")];
            tensor<int32, [1]> input_343_strides_0 = const()[name = tensor<string, []>("input_343_strides_0"), val = tensor<int32, [1]>([1])];
            tensor<int32, [2]> input_343_pad_0 = const()[name = tensor<string, []>("input_343_pad_0"), val = tensor<int32, [2]>([0, 0])];
            tensor<int32, [1]> input_343_dilations_0 = const()[name = tensor<string, []>("input_343_dilations_0"), val = tensor<int32, [1]>([1])];
            tensor<int32, []> input_343_groups_0 = const()[name = tensor<string, []>("input_343_groups_0"), val = tensor<int32, []>(1)];
            tensor<fp16, [256, 64, 1]> const_115_to_fp16 = const()[name = tensor<string, []>("const_115_to_fp16"), val = tensor<fp16, [256, 64, 1]>(BLOBFILE(path = tensor<string, []>("@model_path/weights/weight.bin"), offset = tensor<uint64, []>(1948352)))];
            tensor<fp16, [256]> const_116_to_fp16 = const()[name = tensor<string, []>("const_116_to_fp16"), val = tensor<fp16, [256]>(BLOBFILE(path = tensor<string, []>("@model_path/weights/weight.bin"), offset = tensor<uint64, []>(1981184)))];
            tensor<fp16, [1, 256, 63]> var_1635_cast_fp16 = conv(bias = const_116_to_fp16, dilations = input_343_dilations_0, groups = input_343_groups_0, pad = input_343_pad_0, pad_type = input_343_pad_type_0, strides = input_343_strides_0, weight = const_115_to_fp16, x = input_341_cast_fp16)[name = tensor<string, []>("op_1635_cast_fp16")];
            tensor<fp16, [1, 256, 63]> input_345_cast_fp16 = add(x = var_1635_cast_fp16, y = input_329_cast_fp16)[name = tensor<string, []>("input_345_cast_fp16")];
            tensor<fp16, [1, 256, 63]> input_347_cast_fp16 = relu(x = input_345_cast_fp16)[name = tensor<string, []>("input_347_cast_fp16")];
            tensor<string, []> input_349_pad_type_0 = const()[name = tensor<string, []>("input_349_pad_type_0"), val = tensor<string, []>("valid")];
            tensor<int32, [1]> input_349_strides_0 = const()[name = tensor<string, []>("input_349_strides_0"), val = tensor<int32, [1]>([1])];
            tensor<int32, [2]> input_349_pad_0 = const()[name = tensor<string, []>("input_349_pad_0"), val = tensor<int32, [2]>([0, 0])];
            tensor<int32, [1]> input_349_dilations_0 = const()[name = tensor<string, []>("input_349_dilations_0"), val = tensor<int32, [1]>([1])];
            tensor<int32, []> input_349_groups_0 = const()[name = tensor<string, []>("input_349_groups_0"), val = tensor<int32, []>(1)];
            tensor<fp16, [64, 256, 1]> const_117_to_fp16 = const()[name = tensor<string, []>("const_117_to_fp16"), val = tensor<fp16, [64, 256, 1]>(BLOBFILE(path = tensor<string, []>("@model_path/weights/weight.bin"), offset = tensor<uint64, []>(1981760)))];
            tensor<fp16, [64]> const_118_to_fp16 = const()[name = tensor<string, []>("const_118_to_fp16"), val = tensor<fp16, [64]>(BLOBFILE(path = tensor<string, []>("@model_path/weights/weight.bin"), offset = tensor<uint64, []>(2014592)))];
            tensor<fp16, [1, 64, 63]> input_351_cast_fp16 = conv(bias = const_118_to_fp16, dilations = input_349_dilations_0, groups = input_349_groups_0, pad = input_349_pad_0, pad_type = input_349_pad_type_0, strides = input_349_strides_0, weight = const_117_to_fp16, x = input_347_cast_fp16)[name = tensor<string, []>("input_351_cast_fp16")];
            tensor<fp16, [1, 64, 63]> input_353_cast_fp16 = relu(x = input_351_cast_fp16)[name = tensor<string, []>("input_353_cast_fp16")];
            tensor<string, []> input_355_pad_type_0 = const()[name = tensor<string, []>("input_355_pad_type_0"), val = tensor<string, []>("custom")];
            tensor<int32, [2]> input_355_pad_0 = const()[name = tensor<string, []>("input_355_pad_0"), val = tensor<int32, [2]>([2, 2])];
            tensor<int32, [1]> input_355_strides_0 = const()[name = tensor<string, []>("input_355_strides_0"), val = tensor<int32, [1]>([1])];
            tensor<int32, [1]> input_355_dilations_0 = const()[name = tensor<string, []>("input_355_dilations_0"), val = tensor<int32, [1]>([1])];
            tensor<int32, []> input_355_groups_0 = const()[name = tensor<string, []>("input_355_groups_0"), val = tensor<int32, []>(1)];
            tensor<fp16, [64, 64, 5]> const_119_to_fp16 = const()[name = tensor<string, []>("const_119_to_fp16"), val = tensor<fp16, [64, 64, 5]>(BLOBFILE(path = tensor<string, []>("@model_path/weights/weight.bin"), offset = tensor<uint64, []>(2014784)))];
            tensor<fp16, [64]> const_120_to_fp16 = const()[name = tensor<string, []>("const_120_to_fp16"), val = tensor<fp16, [64]>(BLOBFILE(path = tensor<string, []>("@model_path/weights/weight.bin"), offset = tensor<uint64, []>(2055808)))];
            tensor<fp16, [1, 64, 63]> input_357_cast_fp16 = conv(bias = const_120_to_fp16, dilations = input_355_dilations_0, groups = input_355_groups_0, pad = input_355_pad_0, pad_type = input_355_pad_type_0, strides = input_355_strides_0, weight = const_119_to_fp16, x = input_353_cast_fp16)[name = tensor<string, []>("input_357_cast_fp16")];
            tensor<fp16, [1, 64, 63]> input_359_cast_fp16 = relu(x = input_357_cast_fp16)[name = tensor<string, []>("input_359_cast_fp16")];
            tensor<string, []> input_361_pad_type_0 = const()[name = tensor<string, []>("input_361_pad_type_0"), val = tensor<string, []>("valid")];
            tensor<int32, [1]> input_361_strides_0 = const()[name = tensor<string, []>("input_361_strides_0"), val = tensor<int32, [1]>([1])];
            tensor<int32, [2]> input_361_pad_0 = const()[name = tensor<string, []>("input_361_pad_0"), val = tensor<int32, [2]>([0, 0])];
            tensor<int32, [1]> input_361_dilations_0 = const()[name = tensor<string, []>("input_361_dilations_0"), val = tensor<int32, [1]>([1])];
            tensor<int32, []> input_361_groups_0 = const()[name = tensor<string, []>("input_361_groups_0"), val = tensor<int32, []>(1)];
            tensor<fp16, [256, 64, 1]> const_121_to_fp16 = const()[name = tensor<string, []>("const_121_to_fp16"), val = tensor<fp16, [256, 64, 1]>(BLOBFILE(path = tensor<string, []>("@model_path/weights/weight.bin"), offset = tensor<uint64, []>(2056000)))];
            tensor<fp16, [256]> const_122_to_fp16 = const()[name = tensor<string, []>("const_122_to_fp16"), val = tensor<fp16, [256]>(BLOBFILE(path = tensor<string, []>("@model_path/weights/weight.bin"), offset = tensor<uint64, []>(2088832)))];
            tensor<fp16, [1, 256, 63]> var_1717_cast_fp16 = conv(bias = const_122_to_fp16, dilations = input_361_dilations_0, groups = input_361_groups_0, pad = input_361_pad_0, pad_type = input_361_pad_type_0, strides = input_361_strides_0, weight = const_121_to_fp16, x = input_359_cast_fp16)[name = tensor<string, []>("op_1717_cast_fp16")];
            tensor<fp16, [1, 256, 63]> input_363_cast_fp16 = add(x = var_1717_cast_fp16, y = input_347_cast_fp16)[name = tensor<string, []>("input_363_cast_fp16")];
            tensor<fp16, [1, 256, 63]> input_365_cast_fp16 = relu(x = input_363_cast_fp16)[name = tensor<string, []>("input_365_cast_fp16")];
            tensor<string, []> input_367_pad_type_0 = const()[name = tensor<string, []>("input_367_pad_type_0"), val = tensor<string, []>("valid")];
            tensor<int32, [1]> input_367_strides_0 = const()[name = tensor<string, []>("input_367_strides_0"), val = tensor<int32, [1]>([1])];
            tensor<int32, [2]> input_367_pad_0 = const()[name = tensor<string, []>("input_367_pad_0"), val = tensor<int32, [2]>([0, 0])];
            tensor<int32, [1]> input_367_dilations_0 = const()[name = tensor<string, []>("input_367_dilations_0"), val = tensor<int32, [1]>([1])];
            tensor<int32, []> input_367_groups_0 = const()[name = tensor<string, []>("input_367_groups_0"), val = tensor<int32, []>(1)];
            tensor<fp16, [64, 256, 1]> const_123_to_fp16 = const()[name = tensor<string, []>("const_123_to_fp16"), val = tensor<fp16, [64, 256, 1]>(BLOBFILE(path = tensor<string, []>("@model_path/weights/weight.bin"), offset = tensor<uint64, []>(2089408)))];
            tensor<fp16, [64]> const_124_to_fp16 = const()[name = tensor<string, []>("const_124_to_fp16"), val = tensor<fp16, [64]>(BLOBFILE(path = tensor<string, []>("@model_path/weights/weight.bin"), offset = tensor<uint64, []>(2122240)))];
            tensor<fp16, [1, 64, 63]> input_369_cast_fp16 = conv(bias = const_124_to_fp16, dilations = input_367_dilations_0, groups = input_367_groups_0, pad = input_367_pad_0, pad_type = input_367_pad_type_0, strides = input_367_strides_0, weight = const_123_to_fp16, x = input_365_cast_fp16)[name = tensor<string, []>("input_369_cast_fp16")];
            tensor<fp16, [1, 64, 63]> input_371_cast_fp16 = relu(x = input_369_cast_fp16)[name = tensor<string, []>("input_371_cast_fp16")];
            tensor<string, []> input_373_pad_type_0 = const()[name = tensor<string, []>("input_373_pad_type_0"), val = tensor<string, []>("custom")];
            tensor<int32, [2]> input_373_pad_0 = const()[name = tensor<string, []>("input_373_pad_0"), val = tensor<int32, [2]>([2, 2])];
            tensor<int32, [1]> input_373_strides_0 = const()[name = tensor<string, []>("input_373_strides_0"), val = tensor<int32, [1]>([1])];
            tensor<int32, [1]> input_373_dilations_0 = const()[name = tensor<string, []>("input_373_dilations_0"), val = tensor<int32, [1]>([1])];
            tensor<int32, []> input_373_groups_0 = const()[name = tensor<string, []>("input_373_groups_0"), val = tensor<int32, []>(1)];
            tensor<fp16, [64, 64, 5]> const_125_to_fp16 = const()[name = tensor<string, []>("const_125_to_fp16"), val = tensor<fp16, [64, 64, 5]>(BLOBFILE(path = tensor<string, []>("@model_path/weights/weight.bin"), offset = tensor<uint64, []>(2122432)))];
            tensor<fp16, [64]> const_126_to_fp16 = const()[name = tensor<string, []>("const_126_to_fp16"), val = tensor<fp16, [64]>(BLOBFILE(path = tensor<string, []>("@model_path/weights/weight.bin"), offset = tensor<uint64, []>(2163456)))];
            tensor<fp16, [1, 64, 63]> input_375_cast_fp16 = conv(bias = const_126_to_fp16, dilations = input_373_dilations_0, groups = input_373_groups_0, pad = input_373_pad_0, pad_type = input_373_pad_type_0, strides = input_373_strides_0, weight = const_125_to_fp16, x = input_371_cast_fp16)[name = tensor<string, []>("input_375_cast_fp16")];
            tensor<fp16, [1, 64, 63]> input_377_cast_fp16 = relu(x = input_375_cast_fp16)[name = tensor<string, []>("input_377_cast_fp16")];
            tensor<string, []> input_379_pad_type_0 = const()[name = tensor<string, []>("input_379_pad_type_0"), val = tensor<string, []>("valid")];
            tensor<int32, [1]> input_379_strides_0 = const()[name = tensor<string, []>("input_379_strides_0"), val = tensor<int32, [1]>([1])];
            tensor<int32, [2]> input_379_pad_0 = const()[name = tensor<string, []>("input_379_pad_0"), val = tensor<int32, [2]>([0, 0])];
            tensor<int32, [1]> input_379_dilations_0 = const()[name = tensor<string, []>("input_379_dilations_0"), val = tensor<int32, [1]>([1])];
            tensor<int32, []> input_379_groups_0 = const()[name = tensor<string, []>("input_379_groups_0"), val = tensor<int32, []>(1)];
            tensor<fp16, [256, 64, 1]> const_127_to_fp16 = const()[name = tensor<string, []>("const_127_to_fp16"), val = tensor<fp16, [256, 64, 1]>(BLOBFILE(path = tensor<string, []>("@model_path/weights/weight.bin"), offset = tensor<uint64, []>(2163648)))];
            tensor<fp16, [256]> const_128_to_fp16 = const()[name = tensor<string, []>("const_128_to_fp16"), val = tensor<fp16, [256]>(BLOBFILE(path = tensor<string, []>("@model_path/weights/weight.bin"), offset = tensor<uint64, []>(2196480)))];
            tensor<fp16, [1, 256, 63]> var_1799_cast_fp16 = conv(bias = const_128_to_fp16, dilations = input_379_dilations_0, groups = input_379_groups_0, pad = input_379_pad_0, pad_type = input_379_pad_type_0, strides = input_379_strides_0, weight = const_127_to_fp16, x = input_377_cast_fp16)[name = tensor<string, []>("op_1799_cast_fp16")];
            tensor<fp16, [1, 256, 63]> input_381_cast_fp16 = add(x = var_1799_cast_fp16, y = input_365_cast_fp16)[name = tensor<string, []>("input_381_cast_fp16")];
            tensor<fp16, [1, 256, 63]> input_383_cast_fp16 = relu(x = input_381_cast_fp16)[name = tensor<string, []>("input_383_cast_fp16")];
            tensor<string, []> input_385_pad_type_0 = const()[name = tensor<string, []>("input_385_pad_type_0"), val = tensor<string, []>("valid")];
            tensor<int32, [1]> input_385_strides_0 = const()[name = tensor<string, []>("input_385_strides_0"), val = tensor<int32, [1]>([1])];
            tensor<int32, [2]> input_385_pad_0 = const()[name = tensor<string, []>("input_385_pad_0"), val = tensor<int32, [2]>([0, 0])];
            tensor<int32, [1]> input_385_dilations_0 = const()[name = tensor<string, []>("input_385_dilations_0"), val = tensor<int32, [1]>([1])];
            tensor<int32, []> input_385_groups_0 = const()[name = tensor<string, []>("input_385_groups_0"), val = tensor<int32, []>(1)];
            tensor<fp16, [64, 256, 1]> const_129_to_fp16 = const()[name = tensor<string, []>("const_129_to_fp16"), val = tensor<fp16, [64, 256, 1]>(BLOBFILE(path = tensor<string, []>("@model_path/weights/weight.bin"), offset = tensor<uint64, []>(2197056)))];
            tensor<fp16, [64]> const_130_to_fp16 = const()[name = tensor<string, []>("const_130_to_fp16"), val = tensor<fp16, [64]>(BLOBFILE(path = tensor<string, []>("@model_path/weights/weight.bin"), offset = tensor<uint64, []>(2229888)))];
            tensor<fp16, [1, 64, 63]> input_387_cast_fp16 = conv(bias = const_130_to_fp16, dilations = input_385_dilations_0, groups = input_385_groups_0, pad = input_385_pad_0, pad_type = input_385_pad_type_0, strides = input_385_strides_0, weight = const_129_to_fp16, x = input_383_cast_fp16)[name = tensor<string, []>("input_387_cast_fp16")];
            tensor<fp16, [1, 64, 63]> input_389_cast_fp16 = relu(x = input_387_cast_fp16)[name = tensor<string, []>("input_389_cast_fp16")];
            tensor<string, []> input_391_pad_type_0 = const()[name = tensor<string, []>("input_391_pad_type_0"), val = tensor<string, []>("custom")];
            tensor<int32, [2]> input_391_pad_0 = const()[name = tensor<string, []>("input_391_pad_0"), val = tensor<int32, [2]>([2, 2])];
            tensor<int32, [1]> input_391_strides_0 = const()[name = tensor<string, []>("input_391_strides_0"), val = tensor<int32, [1]>([1])];
            tensor<int32, [1]> input_391_dilations_0 = const()[name = tensor<string, []>("input_391_dilations_0"), val = tensor<int32, [1]>([1])];
            tensor<int32, []> input_391_groups_0 = const()[name = tensor<string, []>("input_391_groups_0"), val = tensor<int32, []>(1)];
            tensor<fp16, [64, 64, 5]> const_131_to_fp16 = const()[name = tensor<string, []>("const_131_to_fp16"), val = tensor<fp16, [64, 64, 5]>(BLOBFILE(path = tensor<string, []>("@model_path/weights/weight.bin"), offset = tensor<uint64, []>(2230080)))];
            tensor<fp16, [64]> const_132_to_fp16 = const()[name = tensor<string, []>("const_132_to_fp16"), val = tensor<fp16, [64]>(BLOBFILE(path = tensor<string, []>("@model_path/weights/weight.bin"), offset = tensor<uint64, []>(2271104)))];
            tensor<fp16, [1, 64, 63]> input_393_cast_fp16 = conv(bias = const_132_to_fp16, dilations = input_391_dilations_0, groups = input_391_groups_0, pad = input_391_pad_0, pad_type = input_391_pad_type_0, strides = input_391_strides_0, weight = const_131_to_fp16, x = input_389_cast_fp16)[name = tensor<string, []>("input_393_cast_fp16")];
            tensor<fp16, [1, 64, 63]> input_395_cast_fp16 = relu(x = input_393_cast_fp16)[name = tensor<string, []>("input_395_cast_fp16")];
            tensor<string, []> input_397_pad_type_0 = const()[name = tensor<string, []>("input_397_pad_type_0"), val = tensor<string, []>("valid")];
            tensor<int32, [1]> input_397_strides_0 = const()[name = tensor<string, []>("input_397_strides_0"), val = tensor<int32, [1]>([1])];
            tensor<int32, [2]> input_397_pad_0 = const()[name = tensor<string, []>("input_397_pad_0"), val = tensor<int32, [2]>([0, 0])];
            tensor<int32, [1]> input_397_dilations_0 = const()[name = tensor<string, []>("input_397_dilations_0"), val = tensor<int32, [1]>([1])];
            tensor<int32, []> input_397_groups_0 = const()[name = tensor<string, []>("input_397_groups_0"), val = tensor<int32, []>(1)];
            tensor<fp16, [256, 64, 1]> const_133_to_fp16 = const()[name = tensor<string, []>("const_133_to_fp16"), val = tensor<fp16, [256, 64, 1]>(BLOBFILE(path = tensor<string, []>("@model_path/weights/weight.bin"), offset = tensor<uint64, []>(2271296)))];
            tensor<fp16, [256]> const_134_to_fp16 = const()[name = tensor<string, []>("const_134_to_fp16"), val = tensor<fp16, [256]>(BLOBFILE(path = tensor<string, []>("@model_path/weights/weight.bin"), offset = tensor<uint64, []>(2304128)))];
            tensor<fp16, [1, 256, 63]> var_1881_cast_fp16 = conv(bias = const_134_to_fp16, dilations = input_397_dilations_0, groups = input_397_groups_0, pad = input_397_pad_0, pad_type = input_397_pad_type_0, strides = input_397_strides_0, weight = const_133_to_fp16, x = input_395_cast_fp16)[name = tensor<string, []>("op_1881_cast_fp16")];
            tensor<fp16, [1, 256, 63]> input_399_cast_fp16 = add(x = var_1881_cast_fp16, y = input_383_cast_fp16)[name = tensor<string, []>("input_399_cast_fp16")];
            tensor<fp16, [1, 256, 63]> input_401_cast_fp16 = relu(x = input_399_cast_fp16)[name = tensor<string, []>("input_401_cast_fp16")];
            tensor<string, []> input_403_pad_type_0 = const()[name = tensor<string, []>("input_403_pad_type_0"), val = tensor<string, []>("valid")];
            tensor<int32, [1]> input_403_strides_0 = const()[name = tensor<string, []>("input_403_strides_0"), val = tensor<int32, [1]>([1])];
            tensor<int32, [2]> input_403_pad_0 = const()[name = tensor<string, []>("input_403_pad_0"), val = tensor<int32, [2]>([0, 0])];
            tensor<int32, [1]> input_403_dilations_0 = const()[name = tensor<string, []>("input_403_dilations_0"), val = tensor<int32, [1]>([1])];
            tensor<int32, []> input_403_groups_0 = const()[name = tensor<string, []>("input_403_groups_0"), val = tensor<int32, []>(1)];
            tensor<fp16, [64, 256, 1]> const_135_to_fp16 = const()[name = tensor<string, []>("const_135_to_fp16"), val = tensor<fp16, [64, 256, 1]>(BLOBFILE(path = tensor<string, []>("@model_path/weights/weight.bin"), offset = tensor<uint64, []>(2304704)))];
            tensor<fp16, [64]> const_136_to_fp16 = const()[name = tensor<string, []>("const_136_to_fp16"), val = tensor<fp16, [64]>(BLOBFILE(path = tensor<string, []>("@model_path/weights/weight.bin"), offset = tensor<uint64, []>(2337536)))];
            tensor<fp16, [1, 64, 63]> input_405_cast_fp16 = conv(bias = const_136_to_fp16, dilations = input_403_dilations_0, groups = input_403_groups_0, pad = input_403_pad_0, pad_type = input_403_pad_type_0, strides = input_403_strides_0, weight = const_135_to_fp16, x = input_401_cast_fp16)[name = tensor<string, []>("input_405_cast_fp16")];
            tensor<fp16, [1, 64, 63]> input_407_cast_fp16 = relu(x = input_405_cast_fp16)[name = tensor<string, []>("input_407_cast_fp16")];
            tensor<string, []> input_409_pad_type_0 = const()[name = tensor<string, []>("input_409_pad_type_0"), val = tensor<string, []>("custom")];
            tensor<int32, [2]> input_409_pad_0 = const()[name = tensor<string, []>("input_409_pad_0"), val = tensor<int32, [2]>([2, 2])];
            tensor<int32, [1]> input_409_strides_0 = const()[name = tensor<string, []>("input_409_strides_0"), val = tensor<int32, [1]>([1])];
            tensor<int32, [1]> input_409_dilations_0 = const()[name = tensor<string, []>("input_409_dilations_0"), val = tensor<int32, [1]>([1])];
            tensor<int32, []> input_409_groups_0 = const()[name = tensor<string, []>("input_409_groups_0"), val = tensor<int32, []>(1)];
            tensor<fp16, [64, 64, 5]> const_137_to_fp16 = const()[name = tensor<string, []>("const_137_to_fp16"), val = tensor<fp16, [64, 64, 5]>(BLOBFILE(path = tensor<string, []>("@model_path/weights/weight.bin"), offset = tensor<uint64, []>(2337728)))];
            tensor<fp16, [64]> const_138_to_fp16 = const()[name = tensor<string, []>("const_138_to_fp16"), val = tensor<fp16, [64]>(BLOBFILE(path = tensor<string, []>("@model_path/weights/weight.bin"), offset = tensor<uint64, []>(2378752)))];
            tensor<fp16, [1, 64, 63]> input_411_cast_fp16 = conv(bias = const_138_to_fp16, dilations = input_409_dilations_0, groups = input_409_groups_0, pad = input_409_pad_0, pad_type = input_409_pad_type_0, strides = input_409_strides_0, weight = const_137_to_fp16, x = input_407_cast_fp16)[name = tensor<string, []>("input_411_cast_fp16")];
            tensor<fp16, [1, 64, 63]> input_413_cast_fp16 = relu(x = input_411_cast_fp16)[name = tensor<string, []>("input_413_cast_fp16")];
            tensor<string, []> input_415_pad_type_0 = const()[name = tensor<string, []>("input_415_pad_type_0"), val = tensor<string, []>("valid")];
            tensor<int32, [1]> input_415_strides_0 = const()[name = tensor<string, []>("input_415_strides_0"), val = tensor<int32, [1]>([1])];
            tensor<int32, [2]> input_415_pad_0 = const()[name = tensor<string, []>("input_415_pad_0"), val = tensor<int32, [2]>([0, 0])];
            tensor<int32, [1]> input_415_dilations_0 = const()[name = tensor<string, []>("input_415_dilations_0"), val = tensor<int32, [1]>([1])];
            tensor<int32, []> input_415_groups_0 = const()[name = tensor<string, []>("input_415_groups_0"), val = tensor<int32, []>(1)];
            tensor<fp16, [256, 64, 1]> const_139_to_fp16 = const()[name = tensor<string, []>("const_139_to_fp16"), val = tensor<fp16, [256, 64, 1]>(BLOBFILE(path = tensor<string, []>("@model_path/weights/weight.bin"), offset = tensor<uint64, []>(2378944)))];
            tensor<fp16, [256]> const_140_to_fp16 = const()[name = tensor<string, []>("const_140_to_fp16"), val = tensor<fp16, [256]>(BLOBFILE(path = tensor<string, []>("@model_path/weights/weight.bin"), offset = tensor<uint64, []>(2411776)))];
            tensor<fp16, [1, 256, 63]> var_1963_cast_fp16 = conv(bias = const_140_to_fp16, dilations = input_415_dilations_0, groups = input_415_groups_0, pad = input_415_pad_0, pad_type = input_415_pad_type_0, strides = input_415_strides_0, weight = const_139_to_fp16, x = input_413_cast_fp16)[name = tensor<string, []>("op_1963_cast_fp16")];
            tensor<fp16, [1, 256, 63]> input_417_cast_fp16 = add(x = var_1963_cast_fp16, y = input_401_cast_fp16)[name = tensor<string, []>("input_417_cast_fp16")];
            tensor<fp16, [1, 256, 63]> input_419_cast_fp16 = relu(x = input_417_cast_fp16)[name = tensor<string, []>("input_419_cast_fp16")];
            tensor<string, []> input_421_pad_type_0 = const()[name = tensor<string, []>("input_421_pad_type_0"), val = tensor<string, []>("valid")];
            tensor<int32, [1]> input_421_strides_0 = const()[name = tensor<string, []>("input_421_strides_0"), val = tensor<int32, [1]>([1])];
            tensor<int32, [2]> input_421_pad_0 = const()[name = tensor<string, []>("input_421_pad_0"), val = tensor<int32, [2]>([0, 0])];
            tensor<int32, [1]> input_421_dilations_0 = const()[name = tensor<string, []>("input_421_dilations_0"), val = tensor<int32, [1]>([1])];
            tensor<int32, []> input_421_groups_0 = const()[name = tensor<string, []>("input_421_groups_0"), val = tensor<int32, []>(1)];
            tensor<fp16, [64, 256, 1]> const_141_to_fp16 = const()[name = tensor<string, []>("const_141_to_fp16"), val = tensor<fp16, [64, 256, 1]>(BLOBFILE(path = tensor<string, []>("@model_path/weights/weight.bin"), offset = tensor<uint64, []>(2412352)))];
            tensor<fp16, [64]> const_142_to_fp16 = const()[name = tensor<string, []>("const_142_to_fp16"), val = tensor<fp16, [64]>(BLOBFILE(path = tensor<string, []>("@model_path/weights/weight.bin"), offset = tensor<uint64, []>(2445184)))];
            tensor<fp16, [1, 64, 63]> input_423_cast_fp16 = conv(bias = const_142_to_fp16, dilations = input_421_dilations_0, groups = input_421_groups_0, pad = input_421_pad_0, pad_type = input_421_pad_type_0, strides = input_421_strides_0, weight = const_141_to_fp16, x = input_419_cast_fp16)[name = tensor<string, []>("input_423_cast_fp16")];
            tensor<fp16, [1, 64, 63]> input_425_cast_fp16 = relu(x = input_423_cast_fp16)[name = tensor<string, []>("input_425_cast_fp16")];
            tensor<string, []> input_427_pad_type_0 = const()[name = tensor<string, []>("input_427_pad_type_0"), val = tensor<string, []>("custom")];
            tensor<int32, [2]> input_427_pad_0 = const()[name = tensor<string, []>("input_427_pad_0"), val = tensor<int32, [2]>([2, 2])];
            tensor<int32, [1]> input_427_strides_0 = const()[name = tensor<string, []>("input_427_strides_0"), val = tensor<int32, [1]>([1])];
            tensor<int32, [1]> input_427_dilations_0 = const()[name = tensor<string, []>("input_427_dilations_0"), val = tensor<int32, [1]>([1])];
            tensor<int32, []> input_427_groups_0 = const()[name = tensor<string, []>("input_427_groups_0"), val = tensor<int32, []>(1)];
            tensor<fp16, [64, 64, 5]> const_143_to_fp16 = const()[name = tensor<string, []>("const_143_to_fp16"), val = tensor<fp16, [64, 64, 5]>(BLOBFILE(path = tensor<string, []>("@model_path/weights/weight.bin"), offset = tensor<uint64, []>(2445376)))];
            tensor<fp16, [64]> const_144_to_fp16 = const()[name = tensor<string, []>("const_144_to_fp16"), val = tensor<fp16, [64]>(BLOBFILE(path = tensor<string, []>("@model_path/weights/weight.bin"), offset = tensor<uint64, []>(2486400)))];
            tensor<fp16, [1, 64, 63]> input_429_cast_fp16 = conv(bias = const_144_to_fp16, dilations = input_427_dilations_0, groups = input_427_groups_0, pad = input_427_pad_0, pad_type = input_427_pad_type_0, strides = input_427_strides_0, weight = const_143_to_fp16, x = input_425_cast_fp16)[name = tensor<string, []>("input_429_cast_fp16")];
            tensor<fp16, [1, 64, 63]> input_431_cast_fp16 = relu(x = input_429_cast_fp16)[name = tensor<string, []>("input_431_cast_fp16")];
            tensor<string, []> input_433_pad_type_0 = const()[name = tensor<string, []>("input_433_pad_type_0"), val = tensor<string, []>("valid")];
            tensor<int32, [1]> input_433_strides_0 = const()[name = tensor<string, []>("input_433_strides_0"), val = tensor<int32, [1]>([1])];
            tensor<int32, [2]> input_433_pad_0 = const()[name = tensor<string, []>("input_433_pad_0"), val = tensor<int32, [2]>([0, 0])];
            tensor<int32, [1]> input_433_dilations_0 = const()[name = tensor<string, []>("input_433_dilations_0"), val = tensor<int32, [1]>([1])];
            tensor<int32, []> input_433_groups_0 = const()[name = tensor<string, []>("input_433_groups_0"), val = tensor<int32, []>(1)];
            tensor<fp16, [256, 64, 1]> const_145_to_fp16 = const()[name = tensor<string, []>("const_145_to_fp16"), val = tensor<fp16, [256, 64, 1]>(BLOBFILE(path = tensor<string, []>("@model_path/weights/weight.bin"), offset = tensor<uint64, []>(2486592)))];
            tensor<fp16, [256]> const_146_to_fp16 = const()[name = tensor<string, []>("const_146_to_fp16"), val = tensor<fp16, [256]>(BLOBFILE(path = tensor<string, []>("@model_path/weights/weight.bin"), offset = tensor<uint64, []>(2519424)))];
            tensor<fp16, [1, 256, 63]> var_2045_cast_fp16 = conv(bias = const_146_to_fp16, dilations = input_433_dilations_0, groups = input_433_groups_0, pad = input_433_pad_0, pad_type = input_433_pad_type_0, strides = input_433_strides_0, weight = const_145_to_fp16, x = input_431_cast_fp16)[name = tensor<string, []>("op_2045_cast_fp16")];
            tensor<fp16, [1, 256, 63]> input_435_cast_fp16 = add(x = var_2045_cast_fp16, y = input_419_cast_fp16)[name = tensor<string, []>("input_435_cast_fp16")];
            tensor<fp16, [1, 256, 63]> input_437_cast_fp16 = relu(x = input_435_cast_fp16)[name = tensor<string, []>("input_437_cast_fp16")];
            tensor<string, []> input_439_pad_type_0 = const()[name = tensor<string, []>("input_439_pad_type_0"), val = tensor<string, []>("valid")];
            tensor<int32, [1]> input_439_strides_0 = const()[name = tensor<string, []>("input_439_strides_0"), val = tensor<int32, [1]>([1])];
            tensor<int32, [2]> input_439_pad_0 = const()[name = tensor<string, []>("input_439_pad_0"), val = tensor<int32, [2]>([0, 0])];
            tensor<int32, [1]> input_439_dilations_0 = const()[name = tensor<string, []>("input_439_dilations_0"), val = tensor<int32, [1]>([1])];
            tensor<int32, []> input_439_groups_0 = const()[name = tensor<string, []>("input_439_groups_0"), val = tensor<int32, []>(1)];
            tensor<fp16, [64, 256, 1]> const_147_to_fp16 = const()[name = tensor<string, []>("const_147_to_fp16"), val = tensor<fp16, [64, 256, 1]>(BLOBFILE(path = tensor<string, []>("@model_path/weights/weight.bin"), offset = tensor<uint64, []>(2520000)))];
            tensor<fp16, [64]> const_148_to_fp16 = const()[name = tensor<string, []>("const_148_to_fp16"), val = tensor<fp16, [64]>(BLOBFILE(path = tensor<string, []>("@model_path/weights/weight.bin"), offset = tensor<uint64, []>(2552832)))];
            tensor<fp16, [1, 64, 63]> input_441_cast_fp16 = conv(bias = const_148_to_fp16, dilations = input_439_dilations_0, groups = input_439_groups_0, pad = input_439_pad_0, pad_type = input_439_pad_type_0, strides = input_439_strides_0, weight = const_147_to_fp16, x = input_437_cast_fp16)[name = tensor<string, []>("input_441_cast_fp16")];
            tensor<fp16, [1, 64, 63]> input_443_cast_fp16 = relu(x = input_441_cast_fp16)[name = tensor<string, []>("input_443_cast_fp16")];
            tensor<string, []> input_445_pad_type_0 = const()[name = tensor<string, []>("input_445_pad_type_0"), val = tensor<string, []>("custom")];
            tensor<int32, [2]> input_445_pad_0 = const()[name = tensor<string, []>("input_445_pad_0"), val = tensor<int32, [2]>([2, 2])];
            tensor<int32, [1]> input_445_strides_0 = const()[name = tensor<string, []>("input_445_strides_0"), val = tensor<int32, [1]>([1])];
            tensor<int32, [1]> input_445_dilations_0 = const()[name = tensor<string, []>("input_445_dilations_0"), val = tensor<int32, [1]>([1])];
            tensor<int32, []> input_445_groups_0 = const()[name = tensor<string, []>("input_445_groups_0"), val = tensor<int32, []>(1)];
            tensor<fp16, [64, 64, 5]> const_149_to_fp16 = const()[name = tensor<string, []>("const_149_to_fp16"), val = tensor<fp16, [64, 64, 5]>(BLOBFILE(path = tensor<string, []>("@model_path/weights/weight.bin"), offset = tensor<uint64, []>(2553024)))];
            tensor<fp16, [64]> const_150_to_fp16 = const()[name = tensor<string, []>("const_150_to_fp16"), val = tensor<fp16, [64]>(BLOBFILE(path = tensor<string, []>("@model_path/weights/weight.bin"), offset = tensor<uint64, []>(2594048)))];
            tensor<fp16, [1, 64, 63]> input_447_cast_fp16 = conv(bias = const_150_to_fp16, dilations = input_445_dilations_0, groups = input_445_groups_0, pad = input_445_pad_0, pad_type = input_445_pad_type_0, strides = input_445_strides_0, weight = const_149_to_fp16, x = input_443_cast_fp16)[name = tensor<string, []>("input_447_cast_fp16")];
            tensor<fp16, [1, 64, 63]> input_449_cast_fp16 = relu(x = input_447_cast_fp16)[name = tensor<string, []>("input_449_cast_fp16")];
            tensor<string, []> input_451_pad_type_0 = const()[name = tensor<string, []>("input_451_pad_type_0"), val = tensor<string, []>("valid")];
            tensor<int32, [1]> input_451_strides_0 = const()[name = tensor<string, []>("input_451_strides_0"), val = tensor<int32, [1]>([1])];
            tensor<int32, [2]> input_451_pad_0 = const()[name = tensor<string, []>("input_451_pad_0"), val = tensor<int32, [2]>([0, 0])];
            tensor<int32, [1]> input_451_dilations_0 = const()[name = tensor<string, []>("input_451_dilations_0"), val = tensor<int32, [1]>([1])];
            tensor<int32, []> input_451_groups_0 = const()[name = tensor<string, []>("input_451_groups_0"), val = tensor<int32, []>(1)];
            tensor<fp16, [256, 64, 1]> const_151_to_fp16 = const()[name = tensor<string, []>("const_151_to_fp16"), val = tensor<fp16, [256, 64, 1]>(BLOBFILE(path = tensor<string, []>("@model_path/weights/weight.bin"), offset = tensor<uint64, []>(2594240)))];
            tensor<fp16, [256]> const_152_to_fp16 = const()[name = tensor<string, []>("const_152_to_fp16"), val = tensor<fp16, [256]>(BLOBFILE(path = tensor<string, []>("@model_path/weights/weight.bin"), offset = tensor<uint64, []>(2627072)))];
            tensor<fp16, [1, 256, 63]> var_2127_cast_fp16 = conv(bias = const_152_to_fp16, dilations = input_451_dilations_0, groups = input_451_groups_0, pad = input_451_pad_0, pad_type = input_451_pad_type_0, strides = input_451_strides_0, weight = const_151_to_fp16, x = input_449_cast_fp16)[name = tensor<string, []>("op_2127_cast_fp16")];
            tensor<fp16, [1, 256, 63]> input_453_cast_fp16 = add(x = var_2127_cast_fp16, y = input_437_cast_fp16)[name = tensor<string, []>("input_453_cast_fp16")];
            tensor<fp16, [1, 256, 63]> input_455_cast_fp16 = relu(x = input_453_cast_fp16)[name = tensor<string, []>("input_455_cast_fp16")];
            tensor<string, []> input_457_pad_type_0 = const()[name = tensor<string, []>("input_457_pad_type_0"), val = tensor<string, []>("valid")];
            tensor<int32, [1]> input_457_strides_0 = const()[name = tensor<string, []>("input_457_strides_0"), val = tensor<int32, [1]>([1])];
            tensor<int32, [2]> input_457_pad_0 = const()[name = tensor<string, []>("input_457_pad_0"), val = tensor<int32, [2]>([0, 0])];
            tensor<int32, [1]> input_457_dilations_0 = const()[name = tensor<string, []>("input_457_dilations_0"), val = tensor<int32, [1]>([1])];
            tensor<int32, []> input_457_groups_0 = const()[name = tensor<string, []>("input_457_groups_0"), val = tensor<int32, []>(1)];
            tensor<fp16, [64, 256, 1]> const_153_to_fp16 = const()[name = tensor<string, []>("const_153_to_fp16"), val = tensor<fp16, [64, 256, 1]>(BLOBFILE(path = tensor<string, []>("@model_path/weights/weight.bin"), offset = tensor<uint64, []>(2627648)))];
            tensor<fp16, [64]> const_154_to_fp16 = const()[name = tensor<string, []>("const_154_to_fp16"), val = tensor<fp16, [64]>(BLOBFILE(path = tensor<string, []>("@model_path/weights/weight.bin"), offset = tensor<uint64, []>(2660480)))];
            tensor<fp16, [1, 64, 63]> input_459_cast_fp16 = conv(bias = const_154_to_fp16, dilations = input_457_dilations_0, groups = input_457_groups_0, pad = input_457_pad_0, pad_type = input_457_pad_type_0, strides = input_457_strides_0, weight = const_153_to_fp16, x = input_455_cast_fp16)[name = tensor<string, []>("input_459_cast_fp16")];
            tensor<fp16, [1, 64, 63]> input_461_cast_fp16 = relu(x = input_459_cast_fp16)[name = tensor<string, []>("input_461_cast_fp16")];
            tensor<string, []> input_463_pad_type_0 = const()[name = tensor<string, []>("input_463_pad_type_0"), val = tensor<string, []>("custom")];
            tensor<int32, [2]> input_463_pad_0 = const()[name = tensor<string, []>("input_463_pad_0"), val = tensor<int32, [2]>([2, 2])];
            tensor<int32, [1]> input_463_strides_0 = const()[name = tensor<string, []>("input_463_strides_0"), val = tensor<int32, [1]>([1])];
            tensor<int32, [1]> input_463_dilations_0 = const()[name = tensor<string, []>("input_463_dilations_0"), val = tensor<int32, [1]>([1])];
            tensor<int32, []> input_463_groups_0 = const()[name = tensor<string, []>("input_463_groups_0"), val = tensor<int32, []>(1)];
            tensor<fp16, [64, 64, 5]> const_155_to_fp16 = const()[name = tensor<string, []>("const_155_to_fp16"), val = tensor<fp16, [64, 64, 5]>(BLOBFILE(path = tensor<string, []>("@model_path/weights/weight.bin"), offset = tensor<uint64, []>(2660672)))];
            tensor<fp16, [64]> const_156_to_fp16 = const()[name = tensor<string, []>("const_156_to_fp16"), val = tensor<fp16, [64]>(BLOBFILE(path = tensor<string, []>("@model_path/weights/weight.bin"), offset = tensor<uint64, []>(2701696)))];
            tensor<fp16, [1, 64, 63]> input_465_cast_fp16 = conv(bias = const_156_to_fp16, dilations = input_463_dilations_0, groups = input_463_groups_0, pad = input_463_pad_0, pad_type = input_463_pad_type_0, strides = input_463_strides_0, weight = const_155_to_fp16, x = input_461_cast_fp16)[name = tensor<string, []>("input_465_cast_fp16")];
            tensor<fp16, [1, 64, 63]> input_467_cast_fp16 = relu(x = input_465_cast_fp16)[name = tensor<string, []>("input_467_cast_fp16")];
            tensor<string, []> input_469_pad_type_0 = const()[name = tensor<string, []>("input_469_pad_type_0"), val = tensor<string, []>("valid")];
            tensor<int32, [1]> input_469_strides_0 = const()[name = tensor<string, []>("input_469_strides_0"), val = tensor<int32, [1]>([1])];
            tensor<int32, [2]> input_469_pad_0 = const()[name = tensor<string, []>("input_469_pad_0"), val = tensor<int32, [2]>([0, 0])];
            tensor<int32, [1]> input_469_dilations_0 = const()[name = tensor<string, []>("input_469_dilations_0"), val = tensor<int32, [1]>([1])];
            tensor<int32, []> input_469_groups_0 = const()[name = tensor<string, []>("input_469_groups_0"), val = tensor<int32, []>(1)];
            tensor<fp16, [256, 64, 1]> const_157_to_fp16 = const()[name = tensor<string, []>("const_157_to_fp16"), val = tensor<fp16, [256, 64, 1]>(BLOBFILE(path = tensor<string, []>("@model_path/weights/weight.bin"), offset = tensor<uint64, []>(2701888)))];
            tensor<fp16, [256]> const_158_to_fp16 = const()[name = tensor<string, []>("const_158_to_fp16"), val = tensor<fp16, [256]>(BLOBFILE(path = tensor<string, []>("@model_path/weights/weight.bin"), offset = tensor<uint64, []>(2734720)))];
            tensor<fp16, [1, 256, 63]> var_2209_cast_fp16 = conv(bias = const_158_to_fp16, dilations = input_469_dilations_0, groups = input_469_groups_0, pad = input_469_pad_0, pad_type = input_469_pad_type_0, strides = input_469_strides_0, weight = const_157_to_fp16, x = input_467_cast_fp16)[name = tensor<string, []>("op_2209_cast_fp16")];
            tensor<fp16, [1, 256, 63]> input_471_cast_fp16 = add(x = var_2209_cast_fp16, y = input_455_cast_fp16)[name = tensor<string, []>("input_471_cast_fp16")];
            tensor<fp16, [1, 256, 63]> input_473_cast_fp16 = relu(x = input_471_cast_fp16)[name = tensor<string, []>("input_473_cast_fp16")];
            tensor<string, []> input_475_pad_type_0 = const()[name = tensor<string, []>("input_475_pad_type_0"), val = tensor<string, []>("valid")];
            tensor<int32, [1]> input_475_strides_0 = const()[name = tensor<string, []>("input_475_strides_0"), val = tensor<int32, [1]>([1])];
            tensor<int32, [2]> input_475_pad_0 = const()[name = tensor<string, []>("input_475_pad_0"), val = tensor<int32, [2]>([0, 0])];
            tensor<int32, [1]> input_475_dilations_0 = const()[name = tensor<string, []>("input_475_dilations_0"), val = tensor<int32, [1]>([1])];
            tensor<int32, []> input_475_groups_0 = const()[name = tensor<string, []>("input_475_groups_0"), val = tensor<int32, []>(1)];
            tensor<fp16, [64, 256, 1]> const_159_to_fp16 = const()[name = tensor<string, []>("const_159_to_fp16"), val = tensor<fp16, [64, 256, 1]>(BLOBFILE(path = tensor<string, []>("@model_path/weights/weight.bin"), offset = tensor<uint64, []>(2735296)))];
            tensor<fp16, [64]> const_160_to_fp16 = const()[name = tensor<string, []>("const_160_to_fp16"), val = tensor<fp16, [64]>(BLOBFILE(path = tensor<string, []>("@model_path/weights/weight.bin"), offset = tensor<uint64, []>(2768128)))];
            tensor<fp16, [1, 64, 63]> input_477_cast_fp16 = conv(bias = const_160_to_fp16, dilations = input_475_dilations_0, groups = input_475_groups_0, pad = input_475_pad_0, pad_type = input_475_pad_type_0, strides = input_475_strides_0, weight = const_159_to_fp16, x = input_473_cast_fp16)[name = tensor<string, []>("input_477_cast_fp16")];
            tensor<fp16, [1, 64, 63]> input_479_cast_fp16 = relu(x = input_477_cast_fp16)[name = tensor<string, []>("input_479_cast_fp16")];
            tensor<string, []> input_481_pad_type_0 = const()[name = tensor<string, []>("input_481_pad_type_0"), val = tensor<string, []>("custom")];
            tensor<int32, [2]> input_481_pad_0 = const()[name = tensor<string, []>("input_481_pad_0"), val = tensor<int32, [2]>([2, 2])];
            tensor<int32, [1]> input_481_strides_0 = const()[name = tensor<string, []>("input_481_strides_0"), val = tensor<int32, [1]>([1])];
            tensor<int32, [1]> input_481_dilations_0 = const()[name = tensor<string, []>("input_481_dilations_0"), val = tensor<int32, [1]>([1])];
            tensor<int32, []> input_481_groups_0 = const()[name = tensor<string, []>("input_481_groups_0"), val = tensor<int32, []>(1)];
            tensor<fp16, [64, 64, 5]> const_161_to_fp16 = const()[name = tensor<string, []>("const_161_to_fp16"), val = tensor<fp16, [64, 64, 5]>(BLOBFILE(path = tensor<string, []>("@model_path/weights/weight.bin"), offset = tensor<uint64, []>(2768320)))];
            tensor<fp16, [64]> const_162_to_fp16 = const()[name = tensor<string, []>("const_162_to_fp16"), val = tensor<fp16, [64]>(BLOBFILE(path = tensor<string, []>("@model_path/weights/weight.bin"), offset = tensor<uint64, []>(2809344)))];
            tensor<fp16, [1, 64, 63]> input_483_cast_fp16 = conv(bias = const_162_to_fp16, dilations = input_481_dilations_0, groups = input_481_groups_0, pad = input_481_pad_0, pad_type = input_481_pad_type_0, strides = input_481_strides_0, weight = const_161_to_fp16, x = input_479_cast_fp16)[name = tensor<string, []>("input_483_cast_fp16")];
            tensor<fp16, [1, 64, 63]> input_485_cast_fp16 = relu(x = input_483_cast_fp16)[name = tensor<string, []>("input_485_cast_fp16")];
            tensor<string, []> input_487_pad_type_0 = const()[name = tensor<string, []>("input_487_pad_type_0"), val = tensor<string, []>("valid")];
            tensor<int32, [1]> input_487_strides_0 = const()[name = tensor<string, []>("input_487_strides_0"), val = tensor<int32, [1]>([1])];
            tensor<int32, [2]> input_487_pad_0 = const()[name = tensor<string, []>("input_487_pad_0"), val = tensor<int32, [2]>([0, 0])];
            tensor<int32, [1]> input_487_dilations_0 = const()[name = tensor<string, []>("input_487_dilations_0"), val = tensor<int32, [1]>([1])];
            tensor<int32, []> input_487_groups_0 = const()[name = tensor<string, []>("input_487_groups_0"), val = tensor<int32, []>(1)];
            tensor<fp16, [256, 64, 1]> const_163_to_fp16 = const()[name = tensor<string, []>("const_163_to_fp16"), val = tensor<fp16, [256, 64, 1]>(BLOBFILE(path = tensor<string, []>("@model_path/weights/weight.bin"), offset = tensor<uint64, []>(2809536)))];
            tensor<fp16, [256]> const_164_to_fp16 = const()[name = tensor<string, []>("const_164_to_fp16"), val = tensor<fp16, [256]>(BLOBFILE(path = tensor<string, []>("@model_path/weights/weight.bin"), offset = tensor<uint64, []>(2842368)))];
            tensor<fp16, [1, 256, 63]> var_2291_cast_fp16 = conv(bias = const_164_to_fp16, dilations = input_487_dilations_0, groups = input_487_groups_0, pad = input_487_pad_0, pad_type = input_487_pad_type_0, strides = input_487_strides_0, weight = const_163_to_fp16, x = input_485_cast_fp16)[name = tensor<string, []>("op_2291_cast_fp16")];
            tensor<fp16, [1, 256, 63]> input_489_cast_fp16 = add(x = var_2291_cast_fp16, y = input_473_cast_fp16)[name = tensor<string, []>("input_489_cast_fp16")];
            tensor<fp16, [1, 256, 63]> input_491_cast_fp16 = relu(x = input_489_cast_fp16)[name = tensor<string, []>("input_491_cast_fp16")];
            tensor<string, []> input_493_pad_type_0 = const()[name = tensor<string, []>("input_493_pad_type_0"), val = tensor<string, []>("valid")];
            tensor<int32, [1]> input_493_strides_0 = const()[name = tensor<string, []>("input_493_strides_0"), val = tensor<int32, [1]>([1])];
            tensor<int32, [2]> input_493_pad_0 = const()[name = tensor<string, []>("input_493_pad_0"), val = tensor<int32, [2]>([0, 0])];
            tensor<int32, [1]> input_493_dilations_0 = const()[name = tensor<string, []>("input_493_dilations_0"), val = tensor<int32, [1]>([1])];
            tensor<int32, []> input_493_groups_0 = const()[name = tensor<string, []>("input_493_groups_0"), val = tensor<int32, []>(1)];
            tensor<fp16, [64, 256, 1]> const_165_to_fp16 = const()[name = tensor<string, []>("const_165_to_fp16"), val = tensor<fp16, [64, 256, 1]>(BLOBFILE(path = tensor<string, []>("@model_path/weights/weight.bin"), offset = tensor<uint64, []>(2842944)))];
            tensor<fp16, [64]> const_166_to_fp16 = const()[name = tensor<string, []>("const_166_to_fp16"), val = tensor<fp16, [64]>(BLOBFILE(path = tensor<string, []>("@model_path/weights/weight.bin"), offset = tensor<uint64, []>(2875776)))];
            tensor<fp16, [1, 64, 63]> input_495_cast_fp16 = conv(bias = const_166_to_fp16, dilations = input_493_dilations_0, groups = input_493_groups_0, pad = input_493_pad_0, pad_type = input_493_pad_type_0, strides = input_493_strides_0, weight = const_165_to_fp16, x = input_491_cast_fp16)[name = tensor<string, []>("input_495_cast_fp16")];
            tensor<fp16, [1, 64, 63]> input_497_cast_fp16 = relu(x = input_495_cast_fp16)[name = tensor<string, []>("input_497_cast_fp16")];
            tensor<string, []> input_499_pad_type_0 = const()[name = tensor<string, []>("input_499_pad_type_0"), val = tensor<string, []>("custom")];
            tensor<int32, [2]> input_499_pad_0 = const()[name = tensor<string, []>("input_499_pad_0"), val = tensor<int32, [2]>([2, 2])];
            tensor<int32, [1]> input_499_strides_0 = const()[name = tensor<string, []>("input_499_strides_0"), val = tensor<int32, [1]>([1])];
            tensor<int32, [1]> input_499_dilations_0 = const()[name = tensor<string, []>("input_499_dilations_0"), val = tensor<int32, [1]>([1])];
            tensor<int32, []> input_499_groups_0 = const()[name = tensor<string, []>("input_499_groups_0"), val = tensor<int32, []>(1)];
            tensor<fp16, [64, 64, 5]> const_167_to_fp16 = const()[name = tensor<string, []>("const_167_to_fp16"), val = tensor<fp16, [64, 64, 5]>(BLOBFILE(path = tensor<string, []>("@model_path/weights/weight.bin"), offset = tensor<uint64, []>(2875968)))];
            tensor<fp16, [64]> const_168_to_fp16 = const()[name = tensor<string, []>("const_168_to_fp16"), val = tensor<fp16, [64]>(BLOBFILE(path = tensor<string, []>("@model_path/weights/weight.bin"), offset = tensor<uint64, []>(2916992)))];
            tensor<fp16, [1, 64, 63]> input_501_cast_fp16 = conv(bias = const_168_to_fp16, dilations = input_499_dilations_0, groups = input_499_groups_0, pad = input_499_pad_0, pad_type = input_499_pad_type_0, strides = input_499_strides_0, weight = const_167_to_fp16, x = input_497_cast_fp16)[name = tensor<string, []>("input_501_cast_fp16")];
            tensor<fp16, [1, 64, 63]> input_503_cast_fp16 = relu(x = input_501_cast_fp16)[name = tensor<string, []>("input_503_cast_fp16")];
            tensor<string, []> input_505_pad_type_0 = const()[name = tensor<string, []>("input_505_pad_type_0"), val = tensor<string, []>("valid")];
            tensor<int32, [1]> input_505_strides_0 = const()[name = tensor<string, []>("input_505_strides_0"), val = tensor<int32, [1]>([1])];
            tensor<int32, [2]> input_505_pad_0 = const()[name = tensor<string, []>("input_505_pad_0"), val = tensor<int32, [2]>([0, 0])];
            tensor<int32, [1]> input_505_dilations_0 = const()[name = tensor<string, []>("input_505_dilations_0"), val = tensor<int32, [1]>([1])];
            tensor<int32, []> input_505_groups_0 = const()[name = tensor<string, []>("input_505_groups_0"), val = tensor<int32, []>(1)];
            tensor<fp16, [256, 64, 1]> const_169_to_fp16 = const()[name = tensor<string, []>("const_169_to_fp16"), val = tensor<fp16, [256, 64, 1]>(BLOBFILE(path = tensor<string, []>("@model_path/weights/weight.bin"), offset = tensor<uint64, []>(2917184)))];
            tensor<fp16, [256]> const_170_to_fp16 = const()[name = tensor<string, []>("const_170_to_fp16"), val = tensor<fp16, [256]>(BLOBFILE(path = tensor<string, []>("@model_path/weights/weight.bin"), offset = tensor<uint64, []>(2950016)))];
            tensor<fp16, [1, 256, 63]> var_2373_cast_fp16 = conv(bias = const_170_to_fp16, dilations = input_505_dilations_0, groups = input_505_groups_0, pad = input_505_pad_0, pad_type = input_505_pad_type_0, strides = input_505_strides_0, weight = const_169_to_fp16, x = input_503_cast_fp16)[name = tensor<string, []>("op_2373_cast_fp16")];
            tensor<fp16, [1, 256, 63]> input_507_cast_fp16 = add(x = var_2373_cast_fp16, y = input_491_cast_fp16)[name = tensor<string, []>("input_507_cast_fp16")];
            tensor<fp16, [1, 256, 63]> input_509_cast_fp16 = relu(x = input_507_cast_fp16)[name = tensor<string, []>("input_509_cast_fp16")];
            tensor<string, []> input_511_pad_type_0 = const()[name = tensor<string, []>("input_511_pad_type_0"), val = tensor<string, []>("valid")];
            tensor<int32, [1]> input_511_strides_0 = const()[name = tensor<string, []>("input_511_strides_0"), val = tensor<int32, [1]>([1])];
            tensor<int32, [2]> input_511_pad_0 = const()[name = tensor<string, []>("input_511_pad_0"), val = tensor<int32, [2]>([0, 0])];
            tensor<int32, [1]> input_511_dilations_0 = const()[name = tensor<string, []>("input_511_dilations_0"), val = tensor<int32, [1]>([1])];
            tensor<int32, []> input_511_groups_0 = const()[name = tensor<string, []>("input_511_groups_0"), val = tensor<int32, []>(1)];
            tensor<fp16, [64, 256, 1]> const_171_to_fp16 = const()[name = tensor<string, []>("const_171_to_fp16"), val = tensor<fp16, [64, 256, 1]>(BLOBFILE(path = tensor<string, []>("@model_path/weights/weight.bin"), offset = tensor<uint64, []>(2950592)))];
            tensor<fp16, [64]> const_172_to_fp16 = const()[name = tensor<string, []>("const_172_to_fp16"), val = tensor<fp16, [64]>(BLOBFILE(path = tensor<string, []>("@model_path/weights/weight.bin"), offset = tensor<uint64, []>(2983424)))];
            tensor<fp16, [1, 64, 63]> input_513_cast_fp16 = conv(bias = const_172_to_fp16, dilations = input_511_dilations_0, groups = input_511_groups_0, pad = input_511_pad_0, pad_type = input_511_pad_type_0, strides = input_511_strides_0, weight = const_171_to_fp16, x = input_509_cast_fp16)[name = tensor<string, []>("input_513_cast_fp16")];
            tensor<fp16, [1, 64, 63]> input_515_cast_fp16 = relu(x = input_513_cast_fp16)[name = tensor<string, []>("input_515_cast_fp16")];
            tensor<string, []> input_517_pad_type_0 = const()[name = tensor<string, []>("input_517_pad_type_0"), val = tensor<string, []>("custom")];
            tensor<int32, [2]> input_517_pad_0 = const()[name = tensor<string, []>("input_517_pad_0"), val = tensor<int32, [2]>([2, 2])];
            tensor<int32, [1]> input_517_strides_0 = const()[name = tensor<string, []>("input_517_strides_0"), val = tensor<int32, [1]>([1])];
            tensor<int32, [1]> input_517_dilations_0 = const()[name = tensor<string, []>("input_517_dilations_0"), val = tensor<int32, [1]>([1])];
            tensor<int32, []> input_517_groups_0 = const()[name = tensor<string, []>("input_517_groups_0"), val = tensor<int32, []>(1)];
            tensor<fp16, [64, 64, 5]> const_173_to_fp16 = const()[name = tensor<string, []>("const_173_to_fp16"), val = tensor<fp16, [64, 64, 5]>(BLOBFILE(path = tensor<string, []>("@model_path/weights/weight.bin"), offset = tensor<uint64, []>(2983616)))];
            tensor<fp16, [64]> const_174_to_fp16 = const()[name = tensor<string, []>("const_174_to_fp16"), val = tensor<fp16, [64]>(BLOBFILE(path = tensor<string, []>("@model_path/weights/weight.bin"), offset = tensor<uint64, []>(3024640)))];
            tensor<fp16, [1, 64, 63]> input_519_cast_fp16 = conv(bias = const_174_to_fp16, dilations = input_517_dilations_0, groups = input_517_groups_0, pad = input_517_pad_0, pad_type = input_517_pad_type_0, strides = input_517_strides_0, weight = const_173_to_fp16, x = input_515_cast_fp16)[name = tensor<string, []>("input_519_cast_fp16")];
            tensor<fp16, [1, 64, 63]> input_521_cast_fp16 = relu(x = input_519_cast_fp16)[name = tensor<string, []>("input_521_cast_fp16")];
            tensor<string, []> input_523_pad_type_0 = const()[name = tensor<string, []>("input_523_pad_type_0"), val = tensor<string, []>("valid")];
            tensor<int32, [1]> input_523_strides_0 = const()[name = tensor<string, []>("input_523_strides_0"), val = tensor<int32, [1]>([1])];
            tensor<int32, [2]> input_523_pad_0 = const()[name = tensor<string, []>("input_523_pad_0"), val = tensor<int32, [2]>([0, 0])];
            tensor<int32, [1]> input_523_dilations_0 = const()[name = tensor<string, []>("input_523_dilations_0"), val = tensor<int32, [1]>([1])];
            tensor<int32, []> input_523_groups_0 = const()[name = tensor<string, []>("input_523_groups_0"), val = tensor<int32, []>(1)];
            tensor<fp16, [256, 64, 1]> const_175_to_fp16 = const()[name = tensor<string, []>("const_175_to_fp16"), val = tensor<fp16, [256, 64, 1]>(BLOBFILE(path = tensor<string, []>("@model_path/weights/weight.bin"), offset = tensor<uint64, []>(3024832)))];
            tensor<fp16, [256]> const_176_to_fp16 = const()[name = tensor<string, []>("const_176_to_fp16"), val = tensor<fp16, [256]>(BLOBFILE(path = tensor<string, []>("@model_path/weights/weight.bin"), offset = tensor<uint64, []>(3057664)))];
            tensor<fp16, [1, 256, 63]> var_2455_cast_fp16 = conv(bias = const_176_to_fp16, dilations = input_523_dilations_0, groups = input_523_groups_0, pad = input_523_pad_0, pad_type = input_523_pad_type_0, strides = input_523_strides_0, weight = const_175_to_fp16, x = input_521_cast_fp16)[name = tensor<string, []>("op_2455_cast_fp16")];
            tensor<fp16, [1, 256, 63]> input_525_cast_fp16 = add(x = var_2455_cast_fp16, y = input_509_cast_fp16)[name = tensor<string, []>("input_525_cast_fp16")];
            tensor<fp16, [1, 256, 63]> input_527_cast_fp16 = relu(x = input_525_cast_fp16)[name = tensor<string, []>("input_527_cast_fp16")];
            tensor<string, []> input_529_pad_type_0 = const()[name = tensor<string, []>("input_529_pad_type_0"), val = tensor<string, []>("valid")];
            tensor<int32, [1]> input_529_strides_0 = const()[name = tensor<string, []>("input_529_strides_0"), val = tensor<int32, [1]>([1])];
            tensor<int32, [2]> input_529_pad_0 = const()[name = tensor<string, []>("input_529_pad_0"), val = tensor<int32, [2]>([0, 0])];
            tensor<int32, [1]> input_529_dilations_0 = const()[name = tensor<string, []>("input_529_dilations_0"), val = tensor<int32, [1]>([1])];
            tensor<int32, []> input_529_groups_0 = const()[name = tensor<string, []>("input_529_groups_0"), val = tensor<int32, []>(1)];
            tensor<fp16, [64, 256, 1]> const_177_to_fp16 = const()[name = tensor<string, []>("const_177_to_fp16"), val = tensor<fp16, [64, 256, 1]>(BLOBFILE(path = tensor<string, []>("@model_path/weights/weight.bin"), offset = tensor<uint64, []>(3058240)))];
            tensor<fp16, [64]> const_178_to_fp16 = const()[name = tensor<string, []>("const_178_to_fp16"), val = tensor<fp16, [64]>(BLOBFILE(path = tensor<string, []>("@model_path/weights/weight.bin"), offset = tensor<uint64, []>(3091072)))];
            tensor<fp16, [1, 64, 63]> input_531_cast_fp16 = conv(bias = const_178_to_fp16, dilations = input_529_dilations_0, groups = input_529_groups_0, pad = input_529_pad_0, pad_type = input_529_pad_type_0, strides = input_529_strides_0, weight = const_177_to_fp16, x = input_527_cast_fp16)[name = tensor<string, []>("input_531_cast_fp16")];
            tensor<fp16, [1, 64, 63]> input_533_cast_fp16 = relu(x = input_531_cast_fp16)[name = tensor<string, []>("input_533_cast_fp16")];
            tensor<string, []> input_535_pad_type_0 = const()[name = tensor<string, []>("input_535_pad_type_0"), val = tensor<string, []>("custom")];
            tensor<int32, [2]> input_535_pad_0 = const()[name = tensor<string, []>("input_535_pad_0"), val = tensor<int32, [2]>([2, 2])];
            tensor<int32, [1]> input_535_strides_0 = const()[name = tensor<string, []>("input_535_strides_0"), val = tensor<int32, [1]>([1])];
            tensor<int32, [1]> input_535_dilations_0 = const()[name = tensor<string, []>("input_535_dilations_0"), val = tensor<int32, [1]>([1])];
            tensor<int32, []> input_535_groups_0 = const()[name = tensor<string, []>("input_535_groups_0"), val = tensor<int32, []>(1)];
            tensor<fp16, [64, 64, 5]> const_179_to_fp16 = const()[name = tensor<string, []>("const_179_to_fp16"), val = tensor<fp16, [64, 64, 5]>(BLOBFILE(path = tensor<string, []>("@model_path/weights/weight.bin"), offset = tensor<uint64, []>(3091264)))];
            tensor<fp16, [64]> const_180_to_fp16 = const()[name = tensor<string, []>("const_180_to_fp16"), val = tensor<fp16, [64]>(BLOBFILE(path = tensor<string, []>("@model_path/weights/weight.bin"), offset = tensor<uint64, []>(3132288)))];
            tensor<fp16, [1, 64, 63]> input_537_cast_fp16 = conv(bias = const_180_to_fp16, dilations = input_535_dilations_0, groups = input_535_groups_0, pad = input_535_pad_0, pad_type = input_535_pad_type_0, strides = input_535_strides_0, weight = const_179_to_fp16, x = input_533_cast_fp16)[name = tensor<string, []>("input_537_cast_fp16")];
            tensor<fp16, [1, 64, 63]> input_539_cast_fp16 = relu(x = input_537_cast_fp16)[name = tensor<string, []>("input_539_cast_fp16")];
            tensor<string, []> input_541_pad_type_0 = const()[name = tensor<string, []>("input_541_pad_type_0"), val = tensor<string, []>("valid")];
            tensor<int32, [1]> input_541_strides_0 = const()[name = tensor<string, []>("input_541_strides_0"), val = tensor<int32, [1]>([1])];
            tensor<int32, [2]> input_541_pad_0 = const()[name = tensor<string, []>("input_541_pad_0"), val = tensor<int32, [2]>([0, 0])];
            tensor<int32, [1]> input_541_dilations_0 = const()[name = tensor<string, []>("input_541_dilations_0"), val = tensor<int32, [1]>([1])];
            tensor<int32, []> input_541_groups_0 = const()[name = tensor<string, []>("input_541_groups_0"), val = tensor<int32, []>(1)];
            tensor<fp16, [256, 64, 1]> const_181_to_fp16 = const()[name = tensor<string, []>("const_181_to_fp16"), val = tensor<fp16, [256, 64, 1]>(BLOBFILE(path = tensor<string, []>("@model_path/weights/weight.bin"), offset = tensor<uint64, []>(3132480)))];
            tensor<fp16, [256]> const_182_to_fp16 = const()[name = tensor<string, []>("const_182_to_fp16"), val = tensor<fp16, [256]>(BLOBFILE(path = tensor<string, []>("@model_path/weights/weight.bin"), offset = tensor<uint64, []>(3165312)))];
            tensor<fp16, [1, 256, 63]> var_2537_cast_fp16 = conv(bias = const_182_to_fp16, dilations = input_541_dilations_0, groups = input_541_groups_0, pad = input_541_pad_0, pad_type = input_541_pad_type_0, strides = input_541_strides_0, weight = const_181_to_fp16, x = input_539_cast_fp16)[name = tensor<string, []>("op_2537_cast_fp16")];
            tensor<fp16, [1, 256, 63]> input_543_cast_fp16 = add(x = var_2537_cast_fp16, y = input_527_cast_fp16)[name = tensor<string, []>("input_543_cast_fp16")];
            tensor<fp16, [1, 256, 63]> input_545_cast_fp16 = relu(x = input_543_cast_fp16)[name = tensor<string, []>("input_545_cast_fp16")];
            tensor<string, []> input_547_pad_type_0 = const()[name = tensor<string, []>("input_547_pad_type_0"), val = tensor<string, []>("valid")];
            tensor<int32, [1]> input_547_strides_0 = const()[name = tensor<string, []>("input_547_strides_0"), val = tensor<int32, [1]>([1])];
            tensor<int32, [2]> input_547_pad_0 = const()[name = tensor<string, []>("input_547_pad_0"), val = tensor<int32, [2]>([0, 0])];
            tensor<int32, [1]> input_547_dilations_0 = const()[name = tensor<string, []>("input_547_dilations_0"), val = tensor<int32, [1]>([1])];
            tensor<int32, []> input_547_groups_0 = const()[name = tensor<string, []>("input_547_groups_0"), val = tensor<int32, []>(1)];
            tensor<fp16, [64, 256, 1]> const_183_to_fp16 = const()[name = tensor<string, []>("const_183_to_fp16"), val = tensor<fp16, [64, 256, 1]>(BLOBFILE(path = tensor<string, []>("@model_path/weights/weight.bin"), offset = tensor<uint64, []>(3165888)))];
            tensor<fp16, [64]> const_184_to_fp16 = const()[name = tensor<string, []>("const_184_to_fp16"), val = tensor<fp16, [64]>(BLOBFILE(path = tensor<string, []>("@model_path/weights/weight.bin"), offset = tensor<uint64, []>(3198720)))];
            tensor<fp16, [1, 64, 63]> input_549_cast_fp16 = conv(bias = const_184_to_fp16, dilations = input_547_dilations_0, groups = input_547_groups_0, pad = input_547_pad_0, pad_type = input_547_pad_type_0, strides = input_547_strides_0, weight = const_183_to_fp16, x = input_545_cast_fp16)[name = tensor<string, []>("input_549_cast_fp16")];
            tensor<fp16, [1, 64, 63]> input_551_cast_fp16 = relu(x = input_549_cast_fp16)[name = tensor<string, []>("input_551_cast_fp16")];
            tensor<string, []> input_553_pad_type_0 = const()[name = tensor<string, []>("input_553_pad_type_0"), val = tensor<string, []>("custom")];
            tensor<int32, [2]> input_553_pad_0 = const()[name = tensor<string, []>("input_553_pad_0"), val = tensor<int32, [2]>([2, 2])];
            tensor<int32, [1]> input_553_strides_0 = const()[name = tensor<string, []>("input_553_strides_0"), val = tensor<int32, [1]>([1])];
            tensor<int32, [1]> input_553_dilations_0 = const()[name = tensor<string, []>("input_553_dilations_0"), val = tensor<int32, [1]>([1])];
            tensor<int32, []> input_553_groups_0 = const()[name = tensor<string, []>("input_553_groups_0"), val = tensor<int32, []>(1)];
            tensor<fp16, [64, 64, 5]> const_185_to_fp16 = const()[name = tensor<string, []>("const_185_to_fp16"), val = tensor<fp16, [64, 64, 5]>(BLOBFILE(path = tensor<string, []>("@model_path/weights/weight.bin"), offset = tensor<uint64, []>(3198912)))];
            tensor<fp16, [64]> const_186_to_fp16 = const()[name = tensor<string, []>("const_186_to_fp16"), val = tensor<fp16, [64]>(BLOBFILE(path = tensor<string, []>("@model_path/weights/weight.bin"), offset = tensor<uint64, []>(3239936)))];
            tensor<fp16, [1, 64, 63]> input_555_cast_fp16 = conv(bias = const_186_to_fp16, dilations = input_553_dilations_0, groups = input_553_groups_0, pad = input_553_pad_0, pad_type = input_553_pad_type_0, strides = input_553_strides_0, weight = const_185_to_fp16, x = input_551_cast_fp16)[name = tensor<string, []>("input_555_cast_fp16")];
            tensor<fp16, [1, 64, 63]> input_557_cast_fp16 = relu(x = input_555_cast_fp16)[name = tensor<string, []>("input_557_cast_fp16")];
            tensor<string, []> input_559_pad_type_0 = const()[name = tensor<string, []>("input_559_pad_type_0"), val = tensor<string, []>("valid")];
            tensor<int32, [1]> input_559_strides_0 = const()[name = tensor<string, []>("input_559_strides_0"), val = tensor<int32, [1]>([1])];
            tensor<int32, [2]> input_559_pad_0 = const()[name = tensor<string, []>("input_559_pad_0"), val = tensor<int32, [2]>([0, 0])];
            tensor<int32, [1]> input_559_dilations_0 = const()[name = tensor<string, []>("input_559_dilations_0"), val = tensor<int32, [1]>([1])];
            tensor<int32, []> input_559_groups_0 = const()[name = tensor<string, []>("input_559_groups_0"), val = tensor<int32, []>(1)];
            tensor<fp16, [256, 64, 1]> const_187_to_fp16 = const()[name = tensor<string, []>("const_187_to_fp16"), val = tensor<fp16, [256, 64, 1]>(BLOBFILE(path = tensor<string, []>("@model_path/weights/weight.bin"), offset = tensor<uint64, []>(3240128)))];
            tensor<fp16, [256]> const_188_to_fp16 = const()[name = tensor<string, []>("const_188_to_fp16"), val = tensor<fp16, [256]>(BLOBFILE(path = tensor<string, []>("@model_path/weights/weight.bin"), offset = tensor<uint64, []>(3272960)))];
            tensor<fp16, [1, 256, 63]> var_2619_cast_fp16 = conv(bias = const_188_to_fp16, dilations = input_559_dilations_0, groups = input_559_groups_0, pad = input_559_pad_0, pad_type = input_559_pad_type_0, strides = input_559_strides_0, weight = const_187_to_fp16, x = input_557_cast_fp16)[name = tensor<string, []>("op_2619_cast_fp16")];
            tensor<fp16, [1, 256, 63]> input_561_cast_fp16 = add(x = var_2619_cast_fp16, y = input_545_cast_fp16)[name = tensor<string, []>("input_561_cast_fp16")];
            tensor<fp16, [1, 256, 63]> input_563_cast_fp16 = relu(x = input_561_cast_fp16)[name = tensor<string, []>("input_563_cast_fp16")];
            tensor<string, []> input_565_pad_type_0 = const()[name = tensor<string, []>("input_565_pad_type_0"), val = tensor<string, []>("valid")];
            tensor<int32, [1]> input_565_strides_0 = const()[name = tensor<string, []>("input_565_strides_0"), val = tensor<int32, [1]>([1])];
            tensor<int32, [2]> input_565_pad_0 = const()[name = tensor<string, []>("input_565_pad_0"), val = tensor<int32, [2]>([0, 0])];
            tensor<int32, [1]> input_565_dilations_0 = const()[name = tensor<string, []>("input_565_dilations_0"), val = tensor<int32, [1]>([1])];
            tensor<int32, []> input_565_groups_0 = const()[name = tensor<string, []>("input_565_groups_0"), val = tensor<int32, []>(1)];
            tensor<fp16, [64, 256, 1]> const_189_to_fp16 = const()[name = tensor<string, []>("const_189_to_fp16"), val = tensor<fp16, [64, 256, 1]>(BLOBFILE(path = tensor<string, []>("@model_path/weights/weight.bin"), offset = tensor<uint64, []>(3273536)))];
            tensor<fp16, [64]> const_190_to_fp16 = const()[name = tensor<string, []>("const_190_to_fp16"), val = tensor<fp16, [64]>(BLOBFILE(path = tensor<string, []>("@model_path/weights/weight.bin"), offset = tensor<uint64, []>(3306368)))];
            tensor<fp16, [1, 64, 63]> input_567_cast_fp16 = conv(bias = const_190_to_fp16, dilations = input_565_dilations_0, groups = input_565_groups_0, pad = input_565_pad_0, pad_type = input_565_pad_type_0, strides = input_565_strides_0, weight = const_189_to_fp16, x = input_563_cast_fp16)[name = tensor<string, []>("input_567_cast_fp16")];
            tensor<fp16, [1, 64, 63]> input_569_cast_fp16 = relu(x = input_567_cast_fp16)[name = tensor<string, []>("input_569_cast_fp16")];
            tensor<string, []> input_571_pad_type_0 = const()[name = tensor<string, []>("input_571_pad_type_0"), val = tensor<string, []>("custom")];
            tensor<int32, [2]> input_571_pad_0 = const()[name = tensor<string, []>("input_571_pad_0"), val = tensor<int32, [2]>([2, 2])];
            tensor<int32, [1]> input_571_strides_0 = const()[name = tensor<string, []>("input_571_strides_0"), val = tensor<int32, [1]>([2])];
            tensor<int32, [1]> input_571_dilations_0 = const()[name = tensor<string, []>("input_571_dilations_0"), val = tensor<int32, [1]>([1])];
            tensor<int32, []> input_571_groups_0 = const()[name = tensor<string, []>("input_571_groups_0"), val = tensor<int32, []>(1)];
            tensor<fp16, [64, 64, 5]> const_191_to_fp16 = const()[name = tensor<string, []>("const_191_to_fp16"), val = tensor<fp16, [64, 64, 5]>(BLOBFILE(path = tensor<string, []>("@model_path/weights/weight.bin"), offset = tensor<uint64, []>(3306560)))];
            tensor<fp16, [64]> const_192_to_fp16 = const()[name = tensor<string, []>("const_192_to_fp16"), val = tensor<fp16, [64]>(BLOBFILE(path = tensor<string, []>("@model_path/weights/weight.bin"), offset = tensor<uint64, []>(3347584)))];
            tensor<fp16, [1, 64, 32]> input_573_cast_fp16 = conv(bias = const_192_to_fp16, dilations = input_571_dilations_0, groups = input_571_groups_0, pad = input_571_pad_0, pad_type = input_571_pad_type_0, strides = input_571_strides_0, weight = const_191_to_fp16, x = input_569_cast_fp16)[name = tensor<string, []>("input_573_cast_fp16")];
            tensor<fp16, [1, 64, 32]> input_575_cast_fp16 = relu(x = input_573_cast_fp16)[name = tensor<string, []>("input_575_cast_fp16")];
            tensor<string, []> input_577_pad_type_0 = const()[name = tensor<string, []>("input_577_pad_type_0"), val = tensor<string, []>("valid")];
            tensor<int32, [1]> input_577_strides_0 = const()[name = tensor<string, []>("input_577_strides_0"), val = tensor<int32, [1]>([1])];
            tensor<int32, [2]> input_577_pad_0 = const()[name = tensor<string, []>("input_577_pad_0"), val = tensor<int32, [2]>([0, 0])];
            tensor<int32, [1]> input_577_dilations_0 = const()[name = tensor<string, []>("input_577_dilations_0"), val = tensor<int32, [1]>([1])];
            tensor<int32, []> input_577_groups_0 = const()[name = tensor<string, []>("input_577_groups_0"), val = tensor<int32, []>(1)];
            tensor<fp16, [256, 64, 1]> const_193_to_fp16 = const()[name = tensor<string, []>("const_193_to_fp16"), val = tensor<fp16, [256, 64, 1]>(BLOBFILE(path = tensor<string, []>("@model_path/weights/weight.bin"), offset = tensor<uint64, []>(3347776)))];
            tensor<fp16, [256]> const_194_to_fp16 = const()[name = tensor<string, []>("const_194_to_fp16"), val = tensor<fp16, [256]>(BLOBFILE(path = tensor<string, []>("@model_path/weights/weight.bin"), offset = tensor<uint64, []>(3380608)))];
            tensor<fp16, [1, 256, 32]> var_2712_cast_fp16 = conv(bias = const_194_to_fp16, dilations = input_577_dilations_0, groups = input_577_groups_0, pad = input_577_pad_0, pad_type = input_577_pad_type_0, strides = input_577_strides_0, weight = const_193_to_fp16, x = input_575_cast_fp16)[name = tensor<string, []>("op_2712_cast_fp16")];
            tensor<int32, [1]> var_2713 = const()[name = tensor<string, []>("op_2713"), val = tensor<int32, [1]>([2])];
            tensor<int32, [1]> var_2714 = const()[name = tensor<string, []>("op_2714"), val = tensor<int32, [1]>([2])];
            tensor<string, []> var_2716_pad_type_0 = const()[name = tensor<string, []>("op_2716_pad_type_0"), val = tensor<string, []>("custom")];
            tensor<int32, [2]> var_2716_pad_0 = const()[name = tensor<string, []>("op_2716_pad_0"), val = tensor<int32, [2]>([0, 0])];
            tensor<bool, []> var_2716_exclude_padding_from_average_0 = const()[name = tensor<string, []>("op_2716_exclude_padding_from_average_0"), val = tensor<bool, []>(false)];
            tensor<bool, []> var_2716_ceil_mode_0 = const()[name = tensor<string, []>("op_2716_ceil_mode_0"), val = tensor<bool, []>(true)];
            tensor<fp16, [1, 256, 32]> var_2716_cast_fp16 = avg_pool(ceil_mode = var_2716_ceil_mode_0, exclude_padding_from_average = var_2716_exclude_padding_from_average_0, kernel_sizes = var_2713, pad = var_2716_pad_0, pad_type = var_2716_pad_type_0, strides = var_2714, x = input_563_cast_fp16)[name = tensor<string, []>("op_2716_cast_fp16")];
            tensor<fp16, [1, 256, 32]> input_579_cast_fp16 = add(x = var_2712_cast_fp16, y = var_2716_cast_fp16)[name = tensor<string, []>("input_579_cast_fp16")];
            tensor<fp16, [1, 256, 32]> input_581_cast_fp16 = relu(x = input_579_cast_fp16)[name = tensor<string, []>("input_581_cast_fp16")];
            tensor<string, []> input_583_pad_type_0 = const()[name = tensor<string, []>("input_583_pad_type_0"), val = tensor<string, []>("valid")];
            tensor<int32, [1]> input_583_strides_0 = const()[name = tensor<string, []>("input_583_strides_0"), val = tensor<int32, [1]>([1])];
            tensor<int32, [2]> input_583_pad_0 = const()[name = tensor<string, []>("input_583_pad_0"), val = tensor<int32, [2]>([0, 0])];
            tensor<int32, [1]> input_583_dilations_0 = const()[name = tensor<string, []>("input_583_dilations_0"), val = tensor<int32, [1]>([1])];
            tensor<int32, []> input_583_groups_0 = const()[name = tensor<string, []>("input_583_groups_0"), val = tensor<int32, []>(1)];
            tensor<fp16, [64, 256, 1]> const_195_to_fp16 = const()[name = tensor<string, []>("const_195_to_fp16"), val = tensor<fp16, [64, 256, 1]>(BLOBFILE(path = tensor<string, []>("@model_path/weights/weight.bin"), offset = tensor<uint64, []>(3381184)))];
            tensor<fp16, [64]> const_196_to_fp16 = const()[name = tensor<string, []>("const_196_to_fp16"), val = tensor<fp16, [64]>(BLOBFILE(path = tensor<string, []>("@model_path/weights/weight.bin"), offset = tensor<uint64, []>(3414016)))];
            tensor<fp16, [1, 64, 32]> input_585_cast_fp16 = conv(bias = const_196_to_fp16, dilations = input_583_dilations_0, groups = input_583_groups_0, pad = input_583_pad_0, pad_type = input_583_pad_type_0, strides = input_583_strides_0, weight = const_195_to_fp16, x = input_581_cast_fp16)[name = tensor<string, []>("input_585_cast_fp16")];
            tensor<fp16, [1, 64, 32]> input_587_cast_fp16 = relu(x = input_585_cast_fp16)[name = tensor<string, []>("input_587_cast_fp16")];
            tensor<string, []> input_589_pad_type_0 = const()[name = tensor<string, []>("input_589_pad_type_0"), val = tensor<string, []>("custom")];
            tensor<int32, [2]> input_589_pad_0 = const()[name = tensor<string, []>("input_589_pad_0"), val = tensor<int32, [2]>([2, 2])];
            tensor<int32, [1]> input_589_strides_0 = const()[name = tensor<string, []>("input_589_strides_0"), val = tensor<int32, [1]>([1])];
            tensor<int32, [1]> input_589_dilations_0 = const()[name = tensor<string, []>("input_589_dilations_0"), val = tensor<int32, [1]>([1])];
            tensor<int32, []> input_589_groups_0 = const()[name = tensor<string, []>("input_589_groups_0"), val = tensor<int32, []>(1)];
            tensor<fp16, [64, 64, 5]> const_197_to_fp16 = const()[name = tensor<string, []>("const_197_to_fp16"), val = tensor<fp16, [64, 64, 5]>(BLOBFILE(path = tensor<string, []>("@model_path/weights/weight.bin"), offset = tensor<uint64, []>(3414208)))];
            tensor<fp16, [64]> const_198_to_fp16 = const()[name = tensor<string, []>("const_198_to_fp16"), val = tensor<fp16, [64]>(BLOBFILE(path = tensor<string, []>("@model_path/weights/weight.bin"), offset = tensor<uint64, []>(3455232)))];
            tensor<fp16, [1, 64, 32]> input_591_cast_fp16 = conv(bias = const_198_to_fp16, dilations = input_589_dilations_0, groups = input_589_groups_0, pad = input_589_pad_0, pad_type = input_589_pad_type_0, strides = input_589_strides_0, weight = const_197_to_fp16, x = input_587_cast_fp16)[name = tensor<string, []>("input_591_cast_fp16")];
            tensor<fp16, [1, 64, 32]> input_593_cast_fp16 = relu(x = input_591_cast_fp16)[name = tensor<string, []>("input_593_cast_fp16")];
            tensor<string, []> input_595_pad_type_0 = const()[name = tensor<string, []>("input_595_pad_type_0"), val = tensor<string, []>("valid")];
            tensor<int32, [1]> input_595_strides_0 = const()[name = tensor<string, []>("input_595_strides_0"), val = tensor<int32, [1]>([1])];
            tensor<int32, [2]> input_595_pad_0 = const()[name = tensor<string, []>("input_595_pad_0"), val = tensor<int32, [2]>([0, 0])];
            tensor<int32, [1]> input_595_dilations_0 = const()[name = tensor<string, []>("input_595_dilations_0"), val = tensor<int32, [1]>([1])];
            tensor<int32, []> input_595_groups_0 = const()[name = tensor<string, []>("input_595_groups_0"), val = tensor<int32, []>(1)];
            tensor<fp16, [256, 64, 1]> const_199_to_fp16 = const()[name = tensor<string, []>("const_199_to_fp16"), val = tensor<fp16, [256, 64, 1]>(BLOBFILE(path = tensor<string, []>("@model_path/weights/weight.bin"), offset = tensor<uint64, []>(3455424)))];
            tensor<fp16, [256]> const_200_to_fp16 = const()[name = tensor<string, []>("const_200_to_fp16"), val = tensor<fp16, [256]>(BLOBFILE(path = tensor<string, []>("@model_path/weights/weight.bin"), offset = tensor<uint64, []>(3488256)))];
            tensor<fp16, [1, 256, 32]> var_2798_cast_fp16 = conv(bias = const_200_to_fp16, dilations = input_595_dilations_0, groups = input_595_groups_0, pad = input_595_pad_0, pad_type = input_595_pad_type_0, strides = input_595_strides_0, weight = const_199_to_fp16, x = input_593_cast_fp16)[name = tensor<string, []>("op_2798_cast_fp16")];
            tensor<fp16, [1, 256, 32]> input_597_cast_fp16 = add(x = var_2798_cast_fp16, y = input_581_cast_fp16)[name = tensor<string, []>("input_597_cast_fp16")];
            tensor<fp16, [1, 256, 32]> input_599_cast_fp16 = relu(x = input_597_cast_fp16)[name = tensor<string, []>("input_599_cast_fp16")];
            tensor<string, []> input_601_pad_type_0 = const()[name = tensor<string, []>("input_601_pad_type_0"), val = tensor<string, []>("valid")];
            tensor<int32, [1]> input_601_strides_0 = const()[name = tensor<string, []>("input_601_strides_0"), val = tensor<int32, [1]>([1])];
            tensor<int32, [2]> input_601_pad_0 = const()[name = tensor<string, []>("input_601_pad_0"), val = tensor<int32, [2]>([0, 0])];
            tensor<int32, [1]> input_601_dilations_0 = const()[name = tensor<string, []>("input_601_dilations_0"), val = tensor<int32, [1]>([1])];
            tensor<int32, []> input_601_groups_0 = const()[name = tensor<string, []>("input_601_groups_0"), val = tensor<int32, []>(1)];
            tensor<fp16, [64, 256, 1]> const_201_to_fp16 = const()[name = tensor<string, []>("const_201_to_fp16"), val = tensor<fp16, [64, 256, 1]>(BLOBFILE(path = tensor<string, []>("@model_path/weights/weight.bin"), offset = tensor<uint64, []>(3488832)))];
            tensor<fp16, [64]> const_202_to_fp16 = const()[name = tensor<string, []>("const_202_to_fp16"), val = tensor<fp16, [64]>(BLOBFILE(path = tensor<string, []>("@model_path/weights/weight.bin"), offset = tensor<uint64, []>(3521664)))];
            tensor<fp16, [1, 64, 32]> input_603_cast_fp16 = conv(bias = const_202_to_fp16, dilations = input_601_dilations_0, groups = input_601_groups_0, pad = input_601_pad_0, pad_type = input_601_pad_type_0, strides = input_601_strides_0, weight = const_201_to_fp16, x = input_599_cast_fp16)[name = tensor<string, []>("input_603_cast_fp16")];
            tensor<fp16, [1, 64, 32]> input_605_cast_fp16 = relu(x = input_603_cast_fp16)[name = tensor<string, []>("input_605_cast_fp16")];
            tensor<string, []> input_607_pad_type_0 = const()[name = tensor<string, []>("input_607_pad_type_0"), val = tensor<string, []>("custom")];
            tensor<int32, [2]> input_607_pad_0 = const()[name = tensor<string, []>("input_607_pad_0"), val = tensor<int32, [2]>([2, 2])];
            tensor<int32, [1]> input_607_strides_0 = const()[name = tensor<string, []>("input_607_strides_0"), val = tensor<int32, [1]>([1])];
            tensor<int32, [1]> input_607_dilations_0 = const()[name = tensor<string, []>("input_607_dilations_0"), val = tensor<int32, [1]>([1])];
            tensor<int32, []> input_607_groups_0 = const()[name = tensor<string, []>("input_607_groups_0"), val = tensor<int32, []>(1)];
            tensor<fp16, [64, 64, 5]> const_203_to_fp16 = const()[name = tensor<string, []>("const_203_to_fp16"), val = tensor<fp16, [64, 64, 5]>(BLOBFILE(path = tensor<string, []>("@model_path/weights/weight.bin"), offset = tensor<uint64, []>(3521856)))];
            tensor<fp16, [64]> const_204_to_fp16 = const()[name = tensor<string, []>("const_204_to_fp16"), val = tensor<fp16, [64]>(BLOBFILE(path = tensor<string, []>("@model_path/weights/weight.bin"), offset = tensor<uint64, []>(3562880)))];
            tensor<fp16, [1, 64, 32]> input_609_cast_fp16 = conv(bias = const_204_to_fp16, dilations = input_607_dilations_0, groups = input_607_groups_0, pad = input_607_pad_0, pad_type = input_607_pad_type_0, strides = input_607_strides_0, weight = const_203_to_fp16, x = input_605_cast_fp16)[name = tensor<string, []>("input_609_cast_fp16")];
            tensor<fp16, [1, 64, 32]> input_611_cast_fp16 = relu(x = input_609_cast_fp16)[name = tensor<string, []>("input_611_cast_fp16")];
            tensor<string, []> input_613_pad_type_0 = const()[name = tensor<string, []>("input_613_pad_type_0"), val = tensor<string, []>("valid")];
            tensor<int32, [1]> input_613_strides_0 = const()[name = tensor<string, []>("input_613_strides_0"), val = tensor<int32, [1]>([1])];
            tensor<int32, [2]> input_613_pad_0 = const()[name = tensor<string, []>("input_613_pad_0"), val = tensor<int32, [2]>([0, 0])];
            tensor<int32, [1]> input_613_dilations_0 = const()[name = tensor<string, []>("input_613_dilations_0"), val = tensor<int32, [1]>([1])];
            tensor<int32, []> input_613_groups_0 = const()[name = tensor<string, []>("input_613_groups_0"), val = tensor<int32, []>(1)];
            tensor<fp16, [256, 64, 1]> const_205_to_fp16 = const()[name = tensor<string, []>("const_205_to_fp16"), val = tensor<fp16, [256, 64, 1]>(BLOBFILE(path = tensor<string, []>("@model_path/weights/weight.bin"), offset = tensor<uint64, []>(3563072)))];
            tensor<fp16, [256]> const_206_to_fp16 = const()[name = tensor<string, []>("const_206_to_fp16"), val = tensor<fp16, [256]>(BLOBFILE(path = tensor<string, []>("@model_path/weights/weight.bin"), offset = tensor<uint64, []>(3595904)))];
            tensor<fp16, [1, 256, 32]> var_2880_cast_fp16 = conv(bias = const_206_to_fp16, dilations = input_613_dilations_0, groups = input_613_groups_0, pad = input_613_pad_0, pad_type = input_613_pad_type_0, strides = input_613_strides_0, weight = const_205_to_fp16, x = input_611_cast_fp16)[name = tensor<string, []>("op_2880_cast_fp16")];
            tensor<fp16, [1, 256, 32]> input_615_cast_fp16 = add(x = var_2880_cast_fp16, y = input_599_cast_fp16)[name = tensor<string, []>("input_615_cast_fp16")];
            tensor<fp16, [1, 256, 32]> input_617_cast_fp16 = relu(x = input_615_cast_fp16)[name = tensor<string, []>("input_617_cast_fp16")];
            tensor<int32, []> var_2891 = const()[name = tensor<string, []>("op_2891"), val = tensor<int32, []>(1)];
            tensor<int32, [1]> reduce_max_0_axes_0 = const()[name = tensor<string, []>("reduce_max_0_axes_0"), val = tensor<int32, [1]>([-1])];
            tensor<bool, []> reduce_max_0_keep_dims_0 = const()[name = tensor<string, []>("reduce_max_0_keep_dims_0"), val = tensor<bool, []>(true)];
            tensor<fp16, [1, 256, 1]> reduce_max_0_cast_fp16 = reduce_max(axes = reduce_max_0_axes_0, keep_dims = reduce_max_0_keep_dims_0, x = input_617_cast_fp16)[name = tensor<string, []>("reduce_max_0_cast_fp16")];
            tensor<int32, []> concat_0_axis_0 = const()[name = tensor<string, []>("concat_0_axis_0"), val = tensor<int32, []>(-1)];
            tensor<bool, []> concat_0_interleave_0 = const()[name = tensor<string, []>("concat_0_interleave_0"), val = tensor<bool, []>(false)];
            tensor<fp16, [1, 256, 1]> concat_0_cast_fp16 = concat(axis = concat_0_axis_0, interleave = concat_0_interleave_0, values = reduce_max_0_cast_fp16)[name = tensor<string, []>("concat_0_cast_fp16")];
            tensor<int32, [1]> reduce_mean_0_axes_0 = const()[name = tensor<string, []>("reduce_mean_0_axes_0"), val = tensor<int32, [1]>([-1])];
            tensor<bool, []> reduce_mean_0_keep_dims_0 = const()[name = tensor<string, []>("reduce_mean_0_keep_dims_0"), val = tensor<bool, []>(true)];
            tensor<fp16, [1, 256, 1]> reduce_mean_0_cast_fp16 = reduce_mean(axes = reduce_mean_0_axes_0, keep_dims = reduce_mean_0_keep_dims_0, x = input_617_cast_fp16)[name = tensor<string, []>("reduce_mean_0_cast_fp16")];
            tensor<int32, []> concat_1_axis_0 = const()[name = tensor<string, []>("concat_1_axis_0"), val = tensor<int32, []>(-1)];
            tensor<bool, []> concat_1_interleave_0 = const()[name = tensor<string, []>("concat_1_interleave_0"), val = tensor<bool, []>(false)];
            tensor<fp16, [1, 256, 1]> concat_1_cast_fp16 = concat(axis = concat_1_axis_0, interleave = concat_1_interleave_0, values = reduce_mean_0_cast_fp16)[name = tensor<string, []>("concat_1_cast_fp16")];
            tensor<bool, []> x_interleave_0 = const()[name = tensor<string, []>("x_interleave_0"), val = tensor<bool, []>(false)];
            tensor<fp16, [1, 512, 1]> x_cast_fp16 = concat(axis = var_2891, interleave = x_interleave_0, values = (concat_0_cast_fp16, concat_1_cast_fp16))[name = tensor<string, []>("x_cast_fp16")];
            tensor<int32, [2]> var_2904 = const()[name = tensor<string, []>("op_2904"), val = tensor<int32, [2]>([1, -1])];
            tensor<fp16, [1, 512]> input_619_cast_fp16 = reshape(shape = var_2904, x = x_cast_fp16)[name = tensor<string, []>("input_619_cast_fp16")];
            tensor<int32, [1]> input_621_rank2_expansion_axes_0 = const()[name = tensor<string, []>("input_621_rank2_expansion_axes_0"), val = tensor<int32, [1]>([-1])];
            tensor<fp16, [1, 512, 1]> input_621_rank2_expansion_cast_fp16 = expand_dims(axes = input_621_rank2_expansion_axes_0, x = input_619_cast_fp16)[name = tensor<string, []>("input_621_rank2_expansion_cast_fp16")];
            tensor<fp16, [512]> var_8_2_running_mean_to_fp16 = const()[name = tensor<string, []>("op_8_2_running_mean_to_fp16"), val = tensor<fp16, [512]>(BLOBFILE(path = tensor<string, []>("@model_path/weights/weight.bin"), offset = tensor<uint64, []>(3596480)))];
            tensor<fp16, [512]> var_8_2_running_var_to_fp16 = const()[name = tensor<string, []>("op_8_2_running_var_to_fp16"), val = tensor<fp16, [512]>(BLOBFILE(path = tensor<string, []>("@model_path/weights/weight.bin"), offset = tensor<uint64, []>(3597568)))];
            tensor<fp16, [512]> var_8_2_weight_to_fp16 = const()[name = tensor<string, []>("op_8_2_weight_to_fp16"), val = tensor<fp16, [512]>(BLOBFILE(path = tensor<string, []>("@model_path/weights/weight.bin"), offset = tensor<uint64, []>(3598656)))];
            tensor<fp16, [512]> var_8_2_bias_to_fp16 = const()[name = tensor<string, []>("op_8_2_bias_to_fp16"), val = tensor<fp16, [512]>(BLOBFILE(path = tensor<string, []>("@model_path/weights/weight.bin"), offset = tensor<uint64, []>(3599744)))];
            tensor<fp16, []> var_2887_to_fp16 = const()[name = tensor<string, []>("op_2887_to_fp16"), val = tensor<fp16, []>(0x1.5p-17)];
            tensor<fp16, [1, 512, 1]> input_621_batch_norm_1d_cast_fp16 = batch_norm(beta = var_8_2_bias_to_fp16, epsilon = var_2887_to_fp16, gamma = var_8_2_weight_to_fp16, mean = var_8_2_running_mean_to_fp16, variance = var_8_2_running_var_to_fp16, x = input_621_rank2_expansion_cast_fp16)[name = tensor<string, []>("input_621_batch_norm_1d_cast_fp16")];
            tensor<int32, [1]> input_621_axes_0 = const()[name = tensor<string, []>("input_621_axes_0"), val = tensor<int32, [1]>([-1])];
            tensor<fp16, [1, 512]> input_621_cast_fp16 = squeeze(axes = input_621_axes_0, x = input_621_batch_norm_1d_cast_fp16)[name = tensor<string, []>("input_621_cast_fp16")];
            tensor<fp16, [128, 512]> var_8_4_weight_to_fp16 = const()[name = tensor<string, []>("op_8_4_weight_to_fp16"), val = tensor<fp16, [128, 512]>(BLOBFILE(path = tensor<string, []>("@model_path/weights/weight.bin"), offset = tensor<uint64, []>(3600832)))];
            tensor<fp16, [128]> var_8_4_bias_to_fp16 = const()[name = tensor<string, []>("op_8_4_bias_to_fp16"), val = tensor<fp16, [128]>(BLOBFILE(path = tensor<string, []>("@model_path/weights/weight.bin"), offset = tensor<uint64, []>(3731968)))];
            tensor<fp16, [1, 128]> linear_0_cast_fp16 = linear(bias = var_8_4_bias_to_fp16, weight = var_8_4_weight_to_fp16, x = input_621_cast_fp16)[name = tensor<string, []>("linear_0_cast_fp16")];
            tensor<fp16, [1, 128]> input_627_cast_fp16 = relu(x = linear_0_cast_fp16)[name = tensor<string, []>("input_627_cast_fp16")];
            tensor<int32, [1]> input_629_rank2_expansion_axes_0 = const()[name = tensor<string, []>("input_629_rank2_expansion_axes_0"), val = tensor<int32, [1]>([-1])];
            tensor<fp16, [1, 128, 1]> input_629_rank2_expansion_cast_fp16 = expand_dims(axes = input_629_rank2_expansion_axes_0, x = input_627_cast_fp16)[name = tensor<string, []>("input_629_rank2_expansion_cast_fp16")];
            tensor<fp16, [128]> var_8_6_running_mean_to_fp16 = const()[name = tensor<string, []>("op_8_6_running_mean_to_fp16"), val = tensor<fp16, [128]>(BLOBFILE(path = tensor<string, []>("@model_path/weights/weight.bin"), offset = tensor<uint64, []>(3732288)))];
            tensor<fp16, [128]> var_8_6_running_var_to_fp16 = const()[name = tensor<string, []>("op_8_6_running_var_to_fp16"), val = tensor<fp16, [128]>(BLOBFILE(path = tensor<string, []>("@model_path/weights/weight.bin"), offset = tensor<uint64, []>(3732608)))];
            tensor<fp16, [128]> var_8_6_weight_to_fp16 = const()[name = tensor<string, []>("op_8_6_weight_to_fp16"), val = tensor<fp16, [128]>(BLOBFILE(path = tensor<string, []>("@model_path/weights/weight.bin"), offset = tensor<uint64, []>(3732928)))];
            tensor<fp16, [128]> var_8_6_bias_to_fp16 = const()[name = tensor<string, []>("op_8_6_bias_to_fp16"), val = tensor<fp16, [128]>(BLOBFILE(path = tensor<string, []>("@model_path/weights/weight.bin"), offset = tensor<uint64, []>(3733248)))];
            tensor<fp16, [1, 128, 1]> input_629_batch_norm_1d_cast_fp16 = batch_norm(beta = var_8_6_bias_to_fp16, epsilon = var_2887_to_fp16, gamma = var_8_6_weight_to_fp16, mean = var_8_6_running_mean_to_fp16, variance = var_8_6_running_var_to_fp16, x = input_629_rank2_expansion_cast_fp16)[name = tensor<string, []>("input_629_batch_norm_1d_cast_fp16")];
            tensor<int32, [1]> input_629_axes_0 = const()[name = tensor<string, []>("input_629_axes_0"), val = tensor<int32, [1]>([-1])];
            tensor<fp16, [1, 128]> input_629_cast_fp16 = squeeze(axes = input_629_axes_0, x = input_629_batch_norm_1d_cast_fp16)[name = tensor<string, []>("input_629_cast_fp16")];
            tensor<fp16, [71, 128]> var_8_8_weight_to_fp16 = const()[name = tensor<string, []>("op_8_8_weight_to_fp16"), val = tensor<fp16, [71, 128]>(BLOBFILE(path = tensor<string, []>("@model_path/weights/weight.bin"), offset = tensor<uint64, []>(3733568)))];
            tensor<fp16, [71]> var_8_8_bias_to_fp16 = const()[name = tensor<string, []>("op_8_8_bias_to_fp16"), val = tensor<fp16, [71]>(BLOBFILE(path = tensor<string, []>("@model_path/weights/weight.bin"), offset = tensor<uint64, []>(3751808)))];
            tensor<fp16, [1, 71]> linear_1_cast_fp16 = linear(bias = var_8_8_bias_to_fp16, weight = var_8_8_weight_to_fp16, x = input_629_cast_fp16)[name = tensor<string, []>("linear_1_cast_fp16")];
            tensor<string, []> linear_1_cast_fp16_to_fp32_dtype_0 = const()[name = tensor<string, []>("linear_1_cast_fp16_to_fp32_dtype_0"), val = tensor<string, []>("fp32")];
            tensor<fp32, [1, 71]> var_2924 = cast(dtype = linear_1_cast_fp16_to_fp32_dtype_0, x = linear_1_cast_fp16)[name = tensor<string, []>("cast_1")];
        } -> (var_2924);
}